pretrain/encoder-decoder/demand_encoder.pth (torch, 2544 bytes, 3 tensors)

conv1.bias f4 [16]
000000 de 59 52 bd c5 16 55 bd 03 11 57 3d a8 75 47 bd
       -0.051355235 -0.052023668 0.052506458 -0.04869619
000010 c2 56 3a bd 3e 75 4d bd 71 f6 35 3d f5 39 50 bd
       -0.045492895 -0.05016064 0.044424478 -0.050836522
000020 e7 5d 34 bd 08 d0 4b 3d 47 38 54 bd fd 9b ad 3d
       -0.044034865 0.04975894 -0.051811483 0.08477018
000030 d6 b0 48 3d 0a 6b 4f 3d e2 04 47 3d 5d 9c 55 3d
       0.04899677 0.05063919 0.04858864 0.052151073

conv1.lin.weight f4 [16, 1]
000000 49 86 0e be 8f b0 fd be 63 a3 33 3f 3f ad a4 be
       -0.13918413 -0.49548766 0.70171183 -0.32163426
000010 f5 d8 7b bc 3b 79 c5 3d ac 5f ab 3d 45 cd 7d be
       -0.015371551 0.096422635 0.08367857 -0.24785335
000020 97 12 79 bd 5e 73 03 3f a2 0c 00 bf cc 6f 04 3f
       -0.060808744 0.5134791 -0.50019276 0.5173309
000030 8f e9 15 3f b5 55 c3 3e 50 63 97 bd 36 17 d0 3e
       0.5855951 0.38151327 -0.07391989 0.4064271

conv2.lin.weight f4 [1, 16]
000000 58 74 24 3f 5b 1a 1f 3f af 71 33 bf 16 3e 41 3e
       0.64240026 0.6214959 -0.7009534 0.1887134
000010 60 27 80 3e 11 be b2 3e 28 11 e6 be 12 93 ff 3e
       0.2503004 0.34910634 -0.44934964 0.49916893
000020 db 88 0a bd c9 a5 89 be 68 20 12 3f 88 8a ed 3c
       -0.03382192 -0.26884297 0.570807 0.02899672
000030 40 5c ec bd ed 9f d1 be ed a5 a9 be 08 b9 30 bf
       -0.11541033 -0.40942326 -0.33134404 -0.69032335
