pretrain/encoder-decoder/demand_decoder.pth (torch, 2544 bytes, 3 tensors)

conv1.bias f4 [16]
0.008103382 0.011531809 0.009026009 -0.011361822 0.015518338 0.011010474 0.011691488 -0.011657257
-0.0117145935 -0.008144343 -0.054675974 -0.029947704 -0.030767368 0.012309507 0.01685283 0.008386498
00000000: 0cc4 043c eaef 3c3c d3e1 133c ef26 3abc
00000010: a140 7e3c 4665 343c a88d 3f3c 14fe 3ebc
00000020: 91ee 3fbc da6f 05bc eaf3 5fbd e354 f5bc
00000030: d90b fcbc d0ad 493c f20e 8a3c 8667 093c

conv1.lin.weight f4 [16, 1]
0.41718122 0.14991271 0.17748821 -0.42778772 -0.3261342 0.23158574 0.14599651 -0.5756629
-0.12548535 -0.19355798 0.39520344 0.35129339 0.1982536 0.037167635 -0.2606653 0.51596296
00000000: c798 d53e b882 193e 78bf 353e fe06 dbbe
00000010: 10fb a6be d024 6d3e 1c80 153e a55e 13bf
00000020: 3b7f 00be 1034 46be 1b58 ca3e badc b33e
00000030: fe02 4b3e 173d 183d ec75 85be 2616 043f

conv2.lin.weight f4 [1, 16]
-0.1572955 -0.50892663 -0.20315489 0.45088625 -0.30453244 -0.3839776 -0.56229466 0.53341264
0.57585824 0.15162997 -0.04087507 0.018401273 0.01398413 -0.3998645 -0.18174759 -0.17132571
00000000: 1212 21be 0449 02bf d607 50be 90da e63e
00000010: adeb 9bbe b698 c4be 8bf2 0fbf bb8d 083f
00000020: 726b 133f e344 1b3e 9e6c 27bd 44be 963c
00000030: b11d 653c 0abb ccbe 0a1c 3abe 0270 2fbe
