pretrain/encoder-decoder/demand_discriminator.pth (torch, 9816 bytes, 7 tensors)

gconv_lstm.cell_list.0.gconv.bias f4 [32]
000000 69 0c 74 3e ec e3 1a be cd 4f 37 3e cd 87 17 3e
       0.23832859 -0.15126008 0.17901535 0.14797898
000010 92 da be 3d bf 1b 1d 3e 54 42 aa 3e 62 f6 ab 3e
       0.09319033 0.15342616 0.3325373 0.33586413
000020 75 30 4a 3d 45 8b a5 be e1 b8 db 3d d3 f5 b0 3d
       0.04936262 -0.32332817 0.10728622 0.08640637
000030 7d 13 d0 3d 39 e7 4c 3e 01 ee 7c bc 50 18 8d 3e
       0.10159967 0.2001008 -0.015437604 0.2755761
000040 c6 1b 9e 3e 75 58 a6 3e 75 a0 31 3e e8 4d db 3d
       0.30880564 0.32489362 0.17346366 0.10708219
000050 72 4a 72 3e cc b8 2d 3e cf 6c 9e 3e 67 cc bc 3e
       0.23661211 0.16965026 0.3094239 0.36874697
000060 93 a8 0e 3e 95 e1 5c 3e 5d 8b fd bd 5b 19 57 3d
       0.13931493 0.21570428 -0.12380097 0.052514415
000070 cb 3f 33 be f1 55 18 bd 71 35 72 be a1 ac 38 3e
       -0.17504804 -0.037191335 -0.23653199 0.18034603

gconv_lstm.cell_list.0.gconv.lin.weight f4 [32, 9]
000000 f8 0e a8 3e 5f c3 01 bf cd c4 b6 bf a3 9c 2b bf
       0.3282392 -0.5068874 -1.4278809 -0.67035884
000010 0b 5c 13 bf bc 22 aa 3f ef e6 b9 3e 92 83 9c 3e
       -0.5756232 1.329185 0.36309 0.3056913
000020 a1 e9 41 bf c6 2e f2 bf 01 80 cd bf 87 20 6a bf
       -0.75747114 -1.8920524 -1.6054689 -0.9145588
000030 4a 5e 15 be fa 4a a9 bf ff 24 fa 3f ab bd 1f 3f
       -0.1458675 -1.3226006 1.954254 0.62398785
000040 07 b3 6b 3f b2 fd ad bf ad 67 4a be 8b 45 a2 be
       0.9207005 -1.3593047 -0.19766112 -0.31693682
000050 bb d1 d9 be 93 c2 7b be 0e 85 4e be 31 9a 13 3e
       -0.42542824 -0.24585943 -0.20167944 0.14414288
000060 4a 94 c2 3e 44 b1 58 3e 51 fd f7 be d9 20 96 be
       0.3800376 0.21161371 -0.48435453 -0.29321936
000070 7a 5b 94 be 3e 1c 88 bf 0e ec bf bd 83 b6 00 bf
       -0.2897604 -1.0633619 -0.09371196 -0.5027849
000080 ac ad 5f 3e 3e 19 de 3d 78 d3 8c 3e 70 21 07 bf
       0.21843594 0.10844658 0.27505088 -0.52785397
000090 22 84 69 bf 14 f5 a8 be 1d 8b 73 bf 97 19 01 3e
       -0.91217244 -0.3299948 -0.95134145 0.12607418
0000a0 2b a7 87 bf f5 c5 6b 3f 47 a6 96 3d fb 1b 40 3f
       -1.0597891 0.92098933 0.07355934 0.75042695
0000b0 cd 50 97 3c 60 af fa be f5 76 f6 bd cb 53 89 be
       0.018471146 -0.48961926 -0.12034408 -0.2682174
0000c0 d9 01 98 be 8c 5c b2 be 02 10 b4 3e 32 ac c0 3e
       -0.2968891 -0.34836233 0.35168463 0.37631375
0000d0 8a 0d 2c 3c a0 4d 14 be ed af aa be 64 9c 97 be
       0.010501275 -0.14482737 -0.33337346 -0.29611504
0000e0 c7 81 91 bf 2f 13 5a bf 76 50 0d bf 3d ab 94 3f
       -1.136773 -0.8518552 -0.552009 1.1614758
0000f0 b0 73 c3 3e 85 11 d0 3e 50 f1 0e bf e5 f3 a6 bd
       0.381742 0.40638366 -0.55836964 -0.08151988
000100 eb 08 fb bd ac c1 15 bf c1 24 b8 3e c8 1a 9e be
       -0.1225756 -0.58498645 0.3596554 -0.30879807
000110 1b 58 85 be f7 12 8a ba f6 35 8e 3e 31 25 87 3c
       -0.26043782 -0.0010534216 0.27775544 0.016497226
000120 96 97 af 3d ee 61 2c bf 85 9c 34 bf f3 0f 17 bd
       0.085738346 -0.6733693 -0.7055133 -0.036880445
000130 83 b0 a3 bf 34 7c 49 3f 81 4e 06 3f 2a 92 86 3f
       -1.2788242 0.78705144 0.5246354 1.0513356
000140 f7 9d 53 bf 80 71 7d bd 65 ea 99 bf ec 89 07 c0
       -0.8266291 -0.06187582 -1.2024657 -2.117793
000150 e1 66 89 3e ac 9c a2 bf 49 38 f6 3f 3f 28 2e 3e
       0.26836303 -1.2704062 1.9235927 0.1700754
000160 7c ee e4 3f 36 13 96 bf c2 96 cb ba 1f f7 0a 3d
       1.788528 -1.1724613 -0.00155326 0.03392708
000170 90 9e 8a 3e bc c9 c9 be 01 99 60 be eb 2a 23 bd
       0.270741 -0.39411724 -0.21933366 -0.03983585
000180 b6 b4 de bd 18 55 8a bc d5 16 08 3e a8 b3 27 bf
       -0.108743116 -0.016886279 0.1328996 -0.6550851
000190 e9 93 8e be e7 ae 84 bf c7 47 03 3d ce e9 40 be
       -0.27847221 -1.0365876 0.032050874 -0.1883919
0001a0 1a 00 1c 3f 79 df 87 3e 00 a6 17 3f 3e f6 2b bd
       0.60937655 0.26537684 0.5923767 -0.04198288
0001b0 2e 90 29 3d c7 d3 eb bd 57 8f 0a c0 56 14 8f bb
       0.041397266 -0.11515003 -2.1649988 -0.004366438
0001c0 c4 b0 61 bf 90 d2 18 3f fe e6 a5 3e f4 35 de 3e
       -0.8816035 0.5969629 0.32402796 0.43400538
0001d0 71 dd 01 bf b2 7c 0d bf 27 2a 03 bd 6a d2 b2 be
       -0.5072852 -0.55268395 -0.03202262 -0.34926158
0001e0 49 d3 ce be c5 0c a5 be 96 75 9a 3e c9 91 67 3e
       -0.40395573 -0.32236305 0.30167836 0.22614206
0001f0 76 31 50 3d d1 6e 06 bf 5e 79 99 be 86 42 42 bf
       0.05082842 -0.5251284 -0.29975408 -0.75882757
000200 46 d9 a6 bf b4 da 2a bf df 58 2c bf 81 e5 34 3f
       -1.3035057 -0.66739964 -0.67323107 0.70662695
000210 fe 22 44 3f 95 d5 a6 3e 2c 26 e9 be ab 7f b4 be
       0.76615894 0.32584825 -0.45536935 -0.35253653
000220 33 d9 1c be 3b 4e 31 3e 5e 8c 88 3f 63 9e ae 3d
       -0.1531723 0.17314999 1.0667837 0.085263036
000230 f1 a4 0c bf ff 6c e1 bd d2 1d 8e be 4b 63 ee 3e
       -0.5493918 -0.110071175 -0.27757126 0.4656013
000240 14 23 44 3d 9c ac 1c bf 78 13 af bf 6e 80 b5 be
       0.047885016 -0.6120088 -1.3677816 -0.35449547
000250 f4 4e 37 bf 03 10 78 3f cf b8 a5 3e bf 18 02 3f
       -0.7160485 0.9689943 0.3236756 0.5081901
000260 64 fd a7 be 42 c5 99 bf 7c a7 c0 bf e1 88 9e bf
       -0.3281051 -1.2013323 -1.5051112 -1.2385522
000270 88 61 1c bf ae 57 9f bf 23 bd f2 3f 4b 48 b7 3f
       -0.6108632 -1.2448633 1.896397 1.4318937
000280 4b 3b bd 3f 97 c6 d9 bf 84 14 99 bd 3b 0d 81 3e
       1.478372 -1.701373 -0.07474616 0.25205407
000290 f8 ae 17 3d b2 74 70 b9 4a 49 a4 be d0 7c a1 be
       0.037032098 -0.00022931656 -0.32087165 -0.31540537
0002a0 1b 72 a7 3e 0a 92 5b be e0 56 15 bc 6a 4b 22 bf
       0.32704243 -0.21442428 -0.009114951 -0.6339632
0002b0 ad d9 b5 be 5e c4 ca bf fb 12 5c be a0 88 ab be
       -0.35517636 -1.5841177 -0.21491615 -0.33502674
0002c0 be 81 06 3f 59 5c 8f 3e 50 66 bd 3b 03 93 f8 be
       0.5254172 0.28000143 0.005780019 -0.4854966
0002d0 08 8a c0 be e5 68 28 bf fb ae d3 bf b8 e1 c2 3d
       -0.3760531 -0.65785056 -1.6537775 0.09515709
0002e0 49 98 f7 be e9 fc de 3e bf d2 44 3f be ff 4d 3f
       -0.48358372 0.4355233 0.76884073 0.80468357
0002f0 a9 8e 8a be 64 c5 0a bf a3 34 db bc 87 ad 1f bf
       -0.27061966 -0.54207444 -0.026758498 -0.62374157
000300 dc 8d ea bd d9 c6 c6 bd 1c dc 00 3f bd 03 1f 3f
       -0.11452839 -0.09705896 0.5033586 0.6211508
000310 db 2e b2 3e 2b e2 ae 39 f2 b2 1e bf 55 8a c6 be
       0.34801373 0.00033356374 -0.619918 -0.38777414
000320 09 3b 77 bf 41 84 da be d8 51 48 be b1 39 8a 3f
       -0.96574455 -0.42679027 -0.19562471 1.0798856
000330 aa 7f a5 3e 9c 98 40 3f ea 25 20 bf 7f bc 31 bf
       0.32323962 0.75232863 -0.6255785 -0.6942825
000340 57 dc 01 be a0 65 6e 3d 80 20 87 3e c7 aa c2 be
       -0.12681709 0.058202386 0.26391983 -0.38020918
000350 ae 9d 82 be d6 e1 2e bf 25 00 2f bd de 6c 37 be
       -0.25510925 -0.6831335 -0.042724747 -0.17912623
000360 60 b7 98 3e 3d 3d ad 3e 2a 9e 7f 3e 3e 4e 95 bd
       0.29827404 0.33835784 0.24962679 -0.07290314
000370 6e b4 ec 3d 65 3b ee 3e 2b c8 05 3b 00 96 89 3e
       0.11557852 0.4652969 0.00204135 0.26872253
000380 6d 00 96 be af 8c aa 3e 66 bc 2c be f2 d4 1e 3e
       -0.292972 0.33310458 -0.16868743 0.1551092
000390 e3 31 c3 be 8a 74 6f bd 12 5b f4 be 5a 38 a2 3b
       -0.38123998 -0.05846075 -0.4772573 0.0049505653
0003a0 29 4f dc be ff 65 4d bd de e1 c7 3e 19 94 ba 3d
       -0.43029144 -0.0501461 0.3903951 0.09110279
0003b0 5b 78 65 3a b1 38 60 3e 72 31 8e be 8f 9c 26 be
       0.0008753591 0.21896626 -0.277721 -0.1627066
0003c0 43 99 bd 3e d3 7a a7 bd d8 0b 68 3e 3d be f5 3d
       0.37030992 -0.08177724 0.22660768 0.11999176
0003d0 83 93 a3 3e b3 7b 45 bc 9c 10 a4 be 06 26 a7 3e
       0.3194848 -0.012053418 -0.32043922 0.32646197
0003e0 a1 5b b6 be 8b b1 0f bf b1 94 d3 be e8 67 ea bd
       -0.35616782 -0.56130284 -0.4132438 -0.114456
0003f0 7e 48 b7 be 38 6e a0 be 44 7a a3 bd bb 7c cb 3e
       -0.35797495 -0.3133409 -0.07982305 0.397436

gconv_lstm.cell_list.1.gconv.bias f4 [32]
000000 9f 94 46 3e af 88 2e 3e 1d a7 2f 3e b5 3d 00 3e
       0.19392632 0.17044328 0.17153592 0.1252354
000010 25 36 8a 3e fd d1 a1 3d 74 8e 8c 3e 96 b6 eb 3d
       0.26994434 0.0790138 0.27452433 0.11509435
000020 58 1d 7a 3e d9 31 78 3e d9 a9 5b 3e 58 d2 57 3d
       0.24425256 0.24237765 0.2145151 0.052690834
000030 5c 67 a7 3e 31 87 10 3e 67 a6 56 3e 57 97 88 3d
       0.32696044 0.14114071 0.20961915 0.06669491
000040 9e 33 8a 3e b3 33 5b 3e 93 e3 60 3e 4d 56 bc 3d
       0.26992506 0.2140644 0.21961813 0.09196148
000050 20 cb 9f 3e 28 49 0d 3e 7c 7d 93 3e 4d 16 b7 3d
       0.3120966 0.13797438 0.28806674 0.089398004
000060 f8 48 05 3c 6d d2 b1 b9 ef 49 ce 3b 38 42 ff 3d
       0.008135073 -0.0003391685 0.0062954347 0.12463802
000070 46 f1 bb bd e5 da 02 bd 53 b8 2b 3d 86 c2 d1 bc
       -0.09176879 -0.031947035 0.041923832 -0.025605451

gconv_lstm.cell_list.1.gconv.lin.weight f4 [32, 16]
000000 09 b8 c9 3c e3 5d e6 be d7 0a 6b bd dc e1 d7 be
       0.024623888 -0.44993505 -0.057383385 -0.42164505
000010 d6 54 c3 be 8d b6 11 3e 8c bf 89 3d 3b 87 9c 3e
       -0.38150662 0.14229794 0.06725988 0.30571923
000020 49 00 6b 3c bb 75 7a 3d 8d 99 9c 3d 94 0c b5 3d
       0.01434333 0.061147433 0.07646475 0.0884029
000030 6f 68 12 3c bc 46 8d 3e e5 4f 37 3e 87 a8 83 bd
       0.008936032 0.2759303 0.17901571 -0.064286284
000040 19 19 60 3d f3 a7 3c bf 84 28 83 be 11 ef fa be
       0.054711435 -0.7369377 -0.25616848 -0.49010518
000050 c5 01 99 3e cd 65 8a 3e 2b c0 09 3f 54 8a ae 3d
       0.29884163 0.27030793 0.5380885 0.08522478
000060 03 bb cb 3e dc af 91 3e dd fa bd 3e 7f e1 d0 be
       0.39791116 0.28454483 0.37105456 -0.4079704
000070 19 59 f6 be 37 97 28 3e 51 b6 84 3d 60 d0 69 3e
       -0.4811485 0.16463934 0.064800866 0.22833395
000080 05 60 c5 be af 3a aa be 05 55 26 3e 1d 71 ea be
       -0.3854982 -0.33247897 0.1624337 -0.45789424
000090 51 4d 97 be 46 8a 94 3e dd 58 83 be a9 1a cc bb
       -0.29551175 0.29011744 -0.25653735 -0.006228764
0000a0 9f 8e 2f 3e 35 2d 3f 3e a6 e3 00 be 57 d0 a2 3d
       0.1714425 0.18669589 -0.12586841 0.07949894
0000b0 2b 89 f5 be 61 88 95 3e 05 57 a7 be e3 3f d3 3e
       -0.47956213 0.2920561 -0.32683578 0.4125968
0000c0 73 f3 44 bf ee 4a 11 bf cb 2d b5 be 99 17 fd be
       -0.76933974 -0.5675496 -0.353865 -0.49432066
0000d0 b8 87 4b 3e 8e 73 d3 3e ac cc 61 3e 45 cb 30 be
       0.19875991 0.412991 0.22050732 -0.17265041
0000e0 a3 10 f8 3e 98 48 1a 3e 3e 8d 68 3e d6 2f 31 be
       0.48450193 0.15066755 0.2271013 -0.17303404
0000f0 ef 27 62 be bb 55 43 3e b2 d1 bd be ae f4 20 3f
       -0.22085546 0.19075672 -0.37074047 0.6287335
000100 72 10 21 3e 38 e1 39 be 17 9d 80 3d d8 97 17 3e
       0.1572893 -0.1815232 0.062799625 0.14804018
000110 72 30 e6 3d 48 21 81 3e b5 ab ce 3e b9 12 b2 be
       0.11239709 0.25220704 0.40365377 -0.3477991
000120 28 83 2c be 49 ff b9 3e 2e d1 a2 3e 56 6b 9b be
       -0.16846907 0.3632758 0.31800216 -0.30355328
000130 fa 11 9d be 06 78 4e be 36 bd 02 bf cd 47 5b 3e
       -0.30677778 -0.20162973 -0.5106996 0.21414109
000140 e5 88 da be 5a 0e 3c bf 6b 82 69 3e 96 34 b2 be
       -0.42682567 -0.734594 0.22803657 -0.34805745
000150 be 93 8e 3e 9f 76 86 be f1 dc 0c 3c 50 29 d8 3d
       0.27847093 -0.26262376 0.008597598 0.10554755
000160 c5 c0 e1 bd f3 ce 9b 3e a5 91 9c 3d 44 e6 9a be
       -0.11023096 0.30431327 0.07644967 -0.30253804
000170 da 2e 9a be 94 1f 8a be dd 51 9c be c3 a4 02 3f
       -0.3011387 -0.26977217 -0.30531207 0.51032656
000180 df 9c ee bd ed 77 07 3f 88 80 bc be e8 c3 e1 be
       -0.116510145 0.5291737 -0.36816812 -0.44094777
000190 4e 9c 8e bd 48 1b ce 3e c3 59 94 bb 03 2b 23 bf
       -0.069634065 0.4025519 -0.004527302 -0.63737506
0001a0 b0 48 37 3e 49 1d 94 bd 19 74 fb bd a3 33 d9 3c
       0.17898822 -0.07232148 -0.12278003 0.02651388
0001b0 bd 3d 32 3d 55 27 11 3f 95 48 e0 bc a0 5e 82 be
       0.04351591 0.5670064 -0.02737836 -0.25462818
0001c0 34 41 4e be 39 0c 3a bf d4 9b 68 3d d2 65 1b bf
       -0.2014206 -0.726749 0.056789234 -0.6070224
0001d0 33 4a 1a 3e e9 10 ef 3e ab 0d 8a 3e a1 f1 ae be
       0.15067367 0.4669259 0.26963553 -0.34168723
0001e0 8f 92 e5 3e 38 ce 8f 3d 6c 67 ce 3e 29 73 06 bf
       0.44838378 0.07021755 0.4031328 -0.5251947
0001f0 c9 f7 95 bb 48 7a 23 3f 30 4d 7f be 4a 15 c2 bb
       -0.0045766574 0.6385846 -0.24931788 -0.005922948
000200 30 57 1b bf 47 21 2b bf 90 a2 41 3e 90 a3 d4 be
       -0.6067991 -0.6684765 0.18909669 -0.41531038
000210 4c d5 94 3e 59 ba 09 ba ff 49 95 3e 8e 1f 0f 3e
       0.29068983 -0.0005253903 0.29158017 0.13976881
000220 ef f0 c3 3d ac f4 be 3d e3 b3 60 3e 00 60 1c 3e
       0.09567439 0.09324011 0.21943621 0.15270996
000230 53 f6 bd bc df 82 00 bf 48 41 ef bd dd 36 87 3d
       -0.023188746 -0.50199693 -0.11682373 0.06602261
000240 25 db 4b bf 7e 9c f3 bd 34 df 4c bd a8 22 f8 be
       -0.79631263 -0.11895083 -0.05001755 -0.4846394
000250 3d 16 ab 3e 5b 6e 2e 3e 0a 4e 46 3e d9 6d 9e be
       0.33415404 0.17034285 0.19365707 -0.30943182
000260 41 05 b0 3e 53 2e c1 3e 5d c4 c7 3e fa c8 df 3d
       0.34379008 0.37730655 0.39017 0.10927005
000270 f1 22 b2 be e1 f1 b7 3e 81 0d c1 bd 00 43 25 be
       -0.34792283 0.35926726 -0.09426404 -0.1613884
000280 83 08 9b bd 4b 09 d3 be 82 1f 67 bd ff 38 1c be
       -0.07569983 -0.41218027 -0.056426533 -0.15256117
000290 cb f0 fc 3e 34 52 96 3e de a0 7d 3e f1 8d 08 be
       0.4940246 0.2935959 0.24768397 -0.13335396
0002a0 29 89 20 3e d4 7b b7 3e 36 69 d8 3d 66 b8 81 3d
       0.15677322 0.3583666 0.105669424 0.06333999
0002b0 a0 bb 01 bd 90 52 0a 3e c8 f0 1e 3d 51 14 58 be
       -0.031673074 0.13508058 0.038803846 -0.211015
0002c0 e9 c7 d1 bd 64 ea be 3b fc 34 b8 be f7 fd 20 bf
       -0.10243208 0.0058262814 -0.35977924 -0.6288752
0002d0 11 e2 96 3e f9 24 d6 3d 21 1c d2 3e fa d0 e5 be
       0.2946935 0.10456271 0.41037086 -0.44886
0002e0 d5 d8 00 3f c5 ec 04 3e 8a 64 b0 bd 2c 3e ed 3c
       0.5033086 0.12980945 -0.08612926 0.02896031
0002f0 d6 6e 8b bd fb b3 13 3e 84 6e cb be 3a a4 f5 3e
       -0.0680825 0.14424126 -0.39732754 0.47976857
000300 4a b5 ee be 57 c7 32 be 1a 6d 50 3d fa ed 24 be
       -0.46622688 -0.17458855 0.050885297 -0.16106406
000310 f4 42 8a 3e 6e ad b8 3e d9 2e 1f 3f 01 eb 19 bf
       0.27004206 0.36069816 0.6218086 -0.6012421
000320 8b 54 0e 3e 97 a2 66 3e 41 3b 63 3e 2e 65 cd 3e
       0.13899438 0.2252296 0.22190572 0.40116256
000330 05 e7 b8 be f9 c1 ba be 09 27 cf be f8 b7 2e 3c
       -0.36113754 -0.36476114 -0.4045947 0.010663979
000340 56 5f 0d 3d 98 9c 02 bf f4 c5 2e 3f 7d 83 ca be
       0.034514748 -0.51020193 0.682708 -0.39553443
000350 91 4b f0 bd 9f 7a 0e be 3f b9 16 be 48 14 01 3f
       -0.11733163 -0.13913964 -0.14719103 0.5042157
000360 95 25 77 3d f8 a4 15 bd 00 08 97 3e 2d 07 9f be
       0.060338575 -0.03653428 0.2949829 -0.31060162
000370 34 97 f2 bd bb 8e 94 3e 23 f6 4e be 1e 54 e9 3e
       -0.11845246 0.29015145 -0.20211081 0.4557199
000380 22 a0 5a 3d 51 71 c7 3e 6c 46 ae bd ba b2 64 3e
       0.05337537 0.3895364 -0.08509526 0.22333804
000390 8e 96 b3 bb 4a 7b c8 3d 64 38 85 3e 19 84 58 be
       -0.005480594 0.097891405 0.26019585 -0.21144141
0003a0 ac 5e 89 3e 6a bc 03 be 23 42 07 be 40 54 02 3e
       0.2683004 -0.12864843 -0.13208823 0.12727451
0003b0 85 98 9b be 0e a1 82 3d 05 d5 e8 bc a6 e6 bb 3c
       -0.303898 0.06378375 -0.028421888 0.02293713
0003c0 b1 21 ac be 18 68 75 3c 37 f3 ae 3e 82 6d 7e be
       -0.33619455 0.014978431 0.34169933 -0.24846461
0003d0 ab f7 30 be e2 81 a2 3e f0 cb 72 3e 65 1e 11 be
       -0.17281978 0.31739718 0.23710608 -0.14171751
0003e0 b8 db 1a 3e f5 96 a7 3e 03 d0 cd 3e e9 d3 1d bf
       0.15122879 0.3273236 0.40197763 -0.61651474
0003f0 c3 36 3d be 0f 83 0b 3f f3 d7 9b 3d 49 4a e1 3e
       -0.18477921 0.54496855 0.076095484 0.44001988

gconv_lstm.cell_list.2.gconv.bias f4 [32]
000000 6a ea 79 3e d3 cc 99 3e 3c b6 80 3e bc 5a 97 3e
       0.24405828 0.3003908 0.25139034 0.29561412
000010 1e 73 80 3e 58 74 95 3e 5c e7 95 3e 0c c1 30 3e
       0.25087827 0.29190326 0.29278076 0.17261142
000020 b8 26 20 3e f1 93 85 3e f0 a9 8f 3d ae 43 8d bd
       0.1563977 0.26089433 0.07014835 -0.068976745
000030 c5 e5 cf 3d f2 c7 6d bd 05 a1 26 3e aa 1a 31 3e
       0.10151247 -0.05805201 0.16272362 0.17295328
000040 a8 24 ca 3e c6 83 e2 3e ba 30 cc 3e 50 33 f4 3e
       0.39481091 0.4424116 0.39880925 0.47695398
000050 11 44 95 3e 9e 1b 81 3e 7b d3 ea 3e c9 70 c1 3e
       0.29153493 0.25216383 0.45864472 0.3778136
000060 86 6a 88 bd 7d a3 20 bd 68 74 f7 3c aa c7 ab bc
       -0.06660943 -0.039218415 0.030206874 -0.02096923
000070 33 64 05 3d aa 3b f3 3c c2 d2 ef ba 92 55 94 bc
       0.03256626 0.029691536 -0.0018297064 -0.01810721

gconv_lstm.cell_list.2.gconv.lin.weight f4 [32, 16]
000000 0d 95 af 3f a7 db 7e 3f 7e fa a7 3f 51 02 13 3e
       1.3717362 0.9955391 1.3123319 0.14356352
000010 cb ae c1 bf 99 c7 32 3f 73 2d 5f bf 96 4e 99 3e
       -1.5131468 0.6983581 -0.87178725 0.2994277
000020 49 d0 39 be ab 7e 71 3f 1c 2d 3c 3f 52 6c f8 3e
       -0.1814586 0.94333905 0.7350633 0.48520142
000030 08 a5 1f 3f 2b 08 2c be 6d 1e 9f bf d3 d2 3f 3f
       0.6236119 -0.16799991 -1.243116 0.7493107
000040 2f ff 21 3e dc c4 01 3f 5e a0 df 3e cb 87 48 3e
       0.15820001 0.5069101 0.43677038 0.19583051
000050 39 03 16 bf 9f 59 39 3f 47 56 8b be ce be 8f bd
       -0.5859867 0.72402376 -0.27214262 -0.07018815
000060 6e aa fc be 42 87 60 3e eb 7a 94 3f c1 86 c7 3f
       -0.49348778 0.21926597 1.1600012 1.5587999
000070 82 2f 6a 3f fb 99 01 3f 15 cb a3 bf d2 dd fa 3e
       0.9147874 0.5062558 -1.2796351 0.4899736
000080 36 1a 3b 3f 51 f5 9b 3f a3 0f ae 3e 3c 9b 89 bd
       0.7308687 1.218424 0.33996305 -0.06719062
000090 d3 3f 0c bf 3f e2 73 3f 9f 8c 22 bf a9 87 86 3e
       -0.5478489 0.952671 -0.6349582 0.26275375
0000a0 ad 74 2a bf 8a 22 a1 3f 1f fe 8f 3f e3 db f7 3f
       -0.66584283 1.2588665 1.1249427 1.9363979
0000b0 9c 9f 82 3f ef 73 49 3f 86 88 19 c0 58 2c b4 3f
       1.0204959 0.78692526 -2.3989577 1.4076033
0000c0 42 35 f3 3e 2d fa f5 3e 75 82 10 3f 46 17 71 be
       0.4750157 0.4804243 0.5644906 -0.23544034
0000d0 f7 3e e5 bd 5d 05 e7 3e 6d 7c d1 be b6 d5 04 3f
       -0.1119365 0.4512128 -0.40915242 0.51888597
0000e0 9d ab ac be a9 c1 a5 3f 56 8d ec 3f 7c 8b e7 3f
       -0.3372468 1.2949725 1.8480632 1.8089442
0000f0 19 8c 15 3f ce e9 5e 3f 00 a8 1e c0 36 a8 8a 3f
       0.584169 0.8707551 -2.479004 1.0832584
000100 7d 2f 9a 3e 29 fd 28 3f 8a 58 57 3f 08 5e 97 3d
       0.30114356 0.6601129 0.84119475 0.07390982
000110 d7 fa e7 be e3 d1 cb 3e ca 31 f6 be c2 67 0a 3e
       -0.45308563 0.39808568 -0.4808486 0.13516143
000120 31 a6 e1 be 15 fc 12 3f 8e eb 5b 3f a4 e7 9e 3f
       -0.44072106 0.57415897 0.859063 1.2414441
000130 57 aa ba 3e a6 fb a1 3e 1b ea cd bf 7e 79 f4 3e
       0.36458084 0.31637305 -1.6087068 0.4774894
000140 05 2d ff 3e 22 ca cf 3e 66 88 19 3f b2 8e 95 be
       0.49839035 0.40583903 0.5997375 -0.2921043
000150 50 37 44 be 18 50 fd 3e f6 7d ba be af e5 91 3e
       -0.19161725 0.4947517 -0.36424226 0.28495547
000160 12 20 dc 3e 7e 8a 0a 3f 1c 40 7c 3f c6 7a 63 3f
       0.42993218 0.5411757 0.98535323 0.8885921
000170 f8 f1 bc 3d 3a c1 e5 3e 7a 5c 99 bf 5a c0 03 3f
       0.092258394 0.44873983 -1.1981347 0.5146538
000180 b9 bb ca 3c d4 38 3a 3f 89 48 df 3e 75 f9 46 3d
       0.024747716 0.7274296 0.43610027 0.048577745
000190 56 b8 8d 3c 95 8e 80 be 97 16 bd bc 94 1a da bd
       0.017299812 -0.2510878 -0.02308206 -0.106496006
0001a0 5e 69 82 bf 05 02 61 3f 02 cd 24 40 df 1d 32 40
       -1.0188406 0.87893707 2.5750127 2.7830732
0001b0 4c 75 b9 3f 9e b5 e3 3f e3 a4 99 bf d8 d4 26 3f
       1.4488921 1.77898 -1.2003444 0.65168524
0001c0 0d b5 b0 3e 86 b9 e4 3d a2 8d 1d 3f fa 9e c2 be
       0.3451313 0.11168198 0.6154424 -0.38011914
0001d0 06 17 0d bf 3f 09 eb 3e a2 5a a9 be 60 94 ae 3e
       -0.55113256 0.45905492 -0.3307696 0.34097576
0001e0 ea e0 42 bf 48 58 84 3e 84 5a d0 3f f1 44 f3 3f
       -0.7612444 0.25848603 1.6277623 1.9005414
0001f0 dc c3 01 3f c2 be bd 3e f8 66 6a bf a7 be bb 3e
       0.5068948 0.370596 -0.9156337 0.36668894
000200 63 ee 2d 3f 3d f6 4d 3f 5f 84 2d 3f 3d 63 82 3e
       0.67941874 0.80453855 0.6778011 0.25466338
000210 e5 81 34 bf c1 18 23 3f 39 42 5e bf 0f c9 a7 bc
       -0.70510703 0.63709646 -0.868198 -0.020481614
000220 e4 59 69 be ed 4e 2c 3e c0 a8 91 3e fe 3a 80 3e
       -0.22788197 0.16826983 0.2844906 0.25045007
000230 1b ae 41 3e 50 d8 c5 3d e8 fd 5c bf f5 ae 14 3f
       0.18914072 0.09660399 -0.8632493 0.58079463
000240 7a ce e6 bd 84 43 b6 3b 85 66 1a be 3a 7a ed 3d
       -0.11269851 0.0055622477 -0.1507817 0.115955785
000250 a4 02 ea be c6 00 92 be 14 4a cb bd 6c 31 cd 3e
       -0.4570514 -0.28516215 -0.09926239 0.40076768
000260 72 6d 1f bf 59 63 c5 3d 42 81 2e 3f 23 7f 6b 3f
       -0.62276375 0.0963809 0.6816598 0.9199087
000270 33 57 f4 3e 9b d2 10 3e da 27 a0 be a7 52 22 3e
       0.47722778 0.1414284 -0.31280404 0.15851842
000280 4d fa 19 bd 39 bb e1 bd 09 0c 21 3e 02 b8 df 3c
       -0.03759222 -0.11022038 0.15727247 0.027309421
000290 a3 ab 49 be 91 b5 ad bd d4 8e 96 be b5 78 0e 3f
       -0.1969438 -0.08481897 -0.29405844 0.55652934
0002a0 93 6d e1 be 51 14 53 3f 25 3e 33 3f 77 ac 4d 3f
       -0.4402891 0.82452875 0.700167 0.80341285
0002b0 d0 72 e3 3e a4 18 09 3f 99 97 13 c0 c1 72 ab 3f
       0.44423532 0.53553224 -2.3061278 1.3394395
0002c0 09 61 c5 3e 16 44 0b bf f8 d5 35 be f1 0b ea be
       0.38550594 -0.54400766 -0.17757404 -0.45712236
0002d0 9e 98 91 bc 9f 4e e3 bd 7b fb f2 be 39 82 e1 3d
       -0.017772969 -0.1109898 -0.4745749 0.11011166
0002e0 3d 1e a9 bd 60 0d a9 3f b1 e2 83 3f 6d a2 99 3f
       -0.082577206 1.3207207 1.0303556 1.2002693
0002f0 44 5d 51 3f 80 b9 41 3f 2c 93 ff bf 25 a8 c9 3f
       0.8178294 0.75673676 -1.9966788 1.5754439
000300 7d 14 18 3f 7f 1f 7f 3e c5 df b4 3d c4 78 34 be
       0.5940626 0.24914359 0.08831743 -0.17624193
000310 d5 f7 87 be 6c 62 d4 3e 54 5b aa be c3 c2 67 3e
       -0.26556268 0.4148134 -0.33272803 0.2263289
000320 ca c4 24 3d 0b ca 6c 3d c4 3e 1a 3f 70 f1 91 3f
       0.040226735 0.05780987 0.6025202 1.1401806
000330 de 25 47 3e d0 c5 c8 3e 25 9c 44 bf c2 5f 39 3f
       0.19448039 0.3921342 -0.7680076 0.7241174
000340 cf 87 da 3e 5b 29 ed 3e 4c 1e 9c 3e bb 1c 01 bf
       0.4268174 0.46320614 0.30491865 -0.50434464
000350 42 66 49 bd 67 72 1c 3e 01 64 3c bf 69 24 5f 3d
       -0.049169786 0.15278016 -0.73590094 0.054478083
000360 f8 18 0f 3f d8 e2 4d 3f bf 83 5f 3f fa 0e ad 3e
       0.55897474 0.8042426 0.87310404 0.3380049
000370 d3 16 cc be cd d6 50 3e 07 7d f9 bf a9 87 03 3f
       -0.39861163 0.2039444 -1.949128 0.51378876
000380 0a 61 ab bd 5b 85 9f be 08 fb 5e 3e 3f 18 b3 3d
       -0.08368118 -0.3115643 0.21775448 0.08744859
000390 b4 79 34 3a 29 bb 3e bd d0 27 56 3e 2d f0 78 3d
       0.000688459 -0.04656521 0.20913625 0.060775924
0003a0 5c 98 22 bf 69 31 3e 3f be e7 b7 3f af 5d e4 3f
       -0.6351373 0.74294144 1.4367597 1.784109
0003b0 b3 5d 17 3f 6b b1 ce 3f 7f c7 06 bf b4 a4 15 3f
       0.5912735 1.6147894 -0.52648157 0.5845444
0003c0 0f b0 23 3e d2 64 7c 3e d3 08 33 be e8 bc da be
       0.1598513 0.24647835 -0.17483835 -0.4272225
0003d0 71 ab 85 be e4 83 88 be 54 90 11 bd 47 3e 83 3e
       -0.26107362 -0.26663125 -0.035538033 0.2563345
0003e0 d7 76 37 be 10 c5 19 3e d2 e4 a4 3e 98 6c 67 3f
       -0.17916428 0.1501658 0.32205826 0.90400076
0003f0 89 39 95 3c 3b 7a 06 3f d5 98 9e be eb 6b fd 3d
       0.018215911 0.5253026 -0.30975977 0.12374099

fc.weight f4 [1, 8]
000000 c3 49 06 bf b8 39 54 40 b5 47 bd 3f 51 93 9f 3f
       -0.524563 3.3160229 1.4787508 1.2466832
000010 92 fe 1d 3f 41 4b 52 3f 1b 14 21 c0 20 3a 4d 40
       0.6171657 0.8214608 -2.5168521 3.2066727
