pretrain/encoder-decoder/inflow_decoder.pth (torch, 2560 bytes, 3 tensors)

conv1.bias f4 [16]
0	0x3bbaa490	0.005695887
1	0xbb8d6c6f	-0.004315905
2	0x3bf2b5d4	0.0074069295
3	0xbc96c235	-0.018403152
4	0xbbbd9574	-0.0057856385
5	0xbba23f5f	-0.004951402
6	0x3d06523c	0.03279327
7	0xbbb8842e	-0.0056309914
8	0x39b3d642	0.00034301175
9	0xbbc67429	-0.006056328
10	0xbb325f25	-0.0027217355
11	0x3c38047b	0.011231537
12	0xb888c749	-6.522105e-05
13	0xbb5e51e6	-0.0033923327
14	0xbaab2eba	-0.001306019
15	0xbb974bf6	-0.0046172095

conv1.lin.weight f4 [16, 1]
0	0x3e4b9ae2	0.19883302
1	0xbd869b5e	-0.06572603
2	0xbe95e937	-0.2927949
3	0x3e65fa7d	0.22458835
4	0x3f0b7c7e	0.54486835
5	0xbf0469a5	-0.517237
6	0xbec92e5e	-0.39293188
7	0xbd9ec94f	-0.0775324
8	0xbe0bea88	-0.13663685
9	0x3eb3da86	0.35127658
10	0x3f2b8e5f	0.67014116
11	0xbef7b196	-0.48377675
12	0xbeaf6092	-0.34253365
13	0xbf26a9c2	-0.6510278
14	0xbec14dc1	-0.37754634
15	0xbe62493c	-0.22098249

conv2.lin.weight f4 [1, 16]
0	0xbf16fd7f	-0.58980554
1	0x3ea0caff	0.31404874
2	0x3da7fa6e	0.082020625
3	0x3dce4657	0.1007201
4	0xbdd628d6	-0.104570076
5	0x3eeb358a	0.45939285
6	0xbcf159fc	-0.029461853
7	0x3f04888a	0.5177084
8	0x3e1de506	0.15419397
9	0xbdcaec30	-0.099083304
10	0xbe0bd5cb	-0.13655774
11	0xbebf90ce	-0.37415165
12	0x3e357e40	0.17723942
13	0x3e9ce72f	0.3064513
14	0x3e56d6e7	0.20980416
15	0x3ecd0015	0.40039125
