pretrain/encoder-decoder/inflow_discriminator.pth (torch, 9840 bytes, 7 tensors)

gconv_lstm.cell_list.0.gconv.bias f4 [32]
0	0x3e91de7b	0.28490052
1	0x3cbba0bb	0.02290379
2	0x3e91aee0	0.28453732
3	0x3e35436f	0.17701505
4	0x3e69f436	0.22847065
5	0x3f347a21	0.70498854
6	0x3ef4b9ea	0.4779809
7	0x3ec7e6a1	0.39043143
8	0x3ed485ab	0.4150823
9	0x3e8fc158	0.28077197
10	0x3f04f5bf	0.5193748
11	0x3f30af9d	0.69017965
12	0x3f0122ec	0.5044391
13	0x3f12b6bd	0.57310086
14	0x3e748861	0.2388015
15	0x3ea87159	0.32898977
16	0x3e994ada	0.2993992
17	0x3e5f363d	0.21798034
18	0x3ebfb40f	0.3744206
19	0x3e6ac684	0.2292729
20	0x3eac7afc	0.3368758
21	0x3f3f3da5	0.7470344
22	0x3f0cc2b3	0.5498459
23	0x3ed60b86	0.41805667
24	0x3e861a21	0.2619181
25	0x3e481f5b	0.19543211
26	0xbcf1e057	-0.029525919
27	0xbdba9e92	-0.09112276
28	0xbe3f153f	-0.18660448
29	0xbd56eaca	-0.052470006
30	0x3e4bbf24	0.19897133
31	0x3dc6be74	0.09704295

gconv_lstm.cell_list.0.gconv.lin.weight f4 [32, 9]
0	0xbddf47cb	-0.10902365
1	0x3e95a71b	0.29229054
2	0xbe86c98a	-0.26325637
3	0xbe86cab9	-0.2632654
4	0x3f005216	0.50125253
5	0xbeb23e15	-0.3481299
6	0xbba5de00	-0.005061865
7	0xbdbacfd5	-0.09121672
8	0x3f32b76f	0.6981115
9	0xbf411be2	-0.7543317
10	0xbe76b5c3	-0.24092774
11	0xbedda1a4	-0.43287385
12	0x3d7a0a99	0.061045263
13	0xbeb8919a	-0.36048585
14	0x3ead2458	0.3381679
15	0x3e9a62bd	0.30153456
16	0x3d942ca4	0.07235077
17	0xbe0ac385	-0.13551147
18	0xbe03103a	-0.12799159
19	0x3e612f60	0.21990728
20	0x3e52e3c0	0.20594692
21	0xbee29aa7	-0.44258615
22	0x3e1a0250	0.15039945
23	0x3df43b7c	0.11925408
24	0xbbfacef1	-0.007654064
25	0x3ea17650	0.31535578
26	0x3ebaab9d	0.36459056
27	0xbd915e71	-0.070980914
28	0x3ecaba9d	0.395955
29	0x3dce2783	0.1006613
30	0xbe19a266	-0.15003356
31	0x3f38018e	0.7187737
32	0xbd86f94b	-0.065905176
33	0x3e81bdd3	0.25340137
34	0x3bc9e37d	0.006161152
35	0x3e618e05	0.22026832
36	0xbf2007fa	-0.6251217
37	0xbd30fc25	-0.043209214
38	0xbea31164	-0.31849205
39	0xbef6e62c	-0.48222482
40	0x3d49ed28	0.049298435
41	0x3e04838e	0.12940809
42	0xbe1be5e9	-0.15224423
43	0x3e42f14f	0.19037364
44	0xbc983cfc	-0.018583767
45	0xbdd93a92	-0.106068745
46	0x3f831747	1.0241479
47	0x3ee102ce	0.43947452
48	0xbf704f38	-0.9387088
49	0x3ec78e42	0.38975722
50	0x3e37fc73	0.17967395
51	0x3f1cf2f6	0.6130823
52	0x3f4d2a3e	0.8014258
53	0x3f0ea845	0.5572551
54	0xbc1fa6ac	-0.0097443275
55	0x3e1166ae	0.14199325
56	0xbdabaa56	-0.083820984
57	0xbe05b986	-0.13059053
58	0x3ec7b14e	0.3900246
59	0x3f0fe172	0.5620338
60	0x3ea22a4f	0.31672904
61	0xbea3bd09	-0.3198016
62	0xbea9bc0a	-0.33151275
63	0xbd3b99a8	-0.045800835
64	0x3e94cc0b	0.29061922
65	0x3e184939	0.14871682
66	0xbed82f96	-0.42223805
67	0xbdb2543a	-0.08707471
68	0xbee7361f	-0.4515848
69	0x3ed3616d	0.41285267
70	0x3ecd713e	0.4012546
71	0x3e9e8b8c	0.3096584
72	0xbe6e8f09	-0.23296751
73	0x3e95b095	0.29236284
74	0xbde80011	-0.11328138
75	0xbeca3b5c	-0.39498413
76	0x3e881fcf	0.26586768
77	0xbdd80e21	-0.1054957
78	0x3ee1c77b	0.44097504
79	0xbea29fe0	-0.317626
80	0x3e927b70	0.286098
81	0xbec0da61	-0.3766661
82	0x3eee2e65	0.4651977
83	0xbef56c11	-0.4793401
84	0xbe280284	-0.1640721
85	0x3ef0722f	0.46962115
86	0x3e5e1b92	0.21690205
87	0x3f29f789	0.66393334
88	0xbea72451	-0.32644895
89	0x3f217d8c	0.63082194
90	0x3e1d95be	0.15389153
91	0x3f0eccbb	0.55781144
92	0x3e577c62	0.21043542
93	0xbf0c63ae	-0.548396
94	0x3f0d9ebd	0.5532034
95	0x3d962b28	0.0733245
96	0x3e13158e	0.14363691
97	0x3e976357	0.29567978
98	0x3f36e947	0.714497
99	0xbf36f014	-0.7146008
100	0x3edacdfd	0.42735282
101	0xbdef63aa	-0.11688931
102	0xbf6aed37	-0.9176821
103	0x3ed294d0	0.4112916
104	0x3f1bcf4b	0.6086318
105	0x3fbb76df	1.4645652
106	0x3d6245c5	0.05524232
107	0x3f46a2c3	0.77592105
108	0xbf7792ef	-0.9670858
109	0x3ed24ff8	0.41076636
110	0x3e00cc9e	0.12578055
111	0xbf656ea8	-0.89621973
112	0x3ee73cbf	0.45163533
113	0x3ed8a7c8	0.42315507
114	0x3f22a76a	0.63536704
115	0x3e176679	0.14785184
116	0x3ea75671	0.32683137
117	0xbdc48259	-0.09595174
118	0x3f7a4304	0.9775851
119	0x3e15c0cf	0.14624332
120	0xbfd95909	-1.6980296
121	0x3f968d88	1.1761942
122	0x3f8ee604	1.1163945
123	0x3f7ab9ec	0.97939944
124	0x3f0142e3	0.50492686
125	0x3f8db580	1.1071014
126	0x3eefde9e	0.4684953
127	0x3e862d3c	0.26206386
128	0xbf1754d1	-0.59113795
129	0x3dbcca55	0.09218279
130	0x3f299c30	0.6625395
131	0x3eed426d	0.4633974
132	0xbdb55876	-0.08854763
133	0xbd829879	-0.06376738
134	0xbec1cc62	-0.37851244
135	0x3efad3d5	0.4898974
136	0x3e82c9b9	0.25544527
137	0x3d978514	0.073984295
138	0xbdfeb3bb	-0.124366246
139	0xbe2dbf2a	-0.16967455
140	0xbdba380e	-0.09092723
141	0x3e0cd00b	0.13751237
142	0x3e37ba28	0.17942107
143	0xbe6b7ccb	-0.22996823
144	0xbef0128b	-0.46889147
145	0x3f2f6325	0.6851066
146	0x3decd9dc	0.11564991
147	0xbec9b39f	-0.39394853
148	0x3f2b9206	0.6701969
149	0x3db6c586	0.08924393
150	0x3d96c333	0.0736145
151	0xbefd0106	-0.49414843
152	0x3de6eb7c	0.11275384
153	0xbee27351	-0.44228604
154	0x3d21df9f	0.039519902
155	0xbefe022e	-0.49611038
156	0xbee98f1d	-0.45617
157	0xbd7e4935	-0.062081534
158	0x3d42cfa8	0.047561318
159	0x3ee2b286	0.44276828
160	0xbeccd37a	-0.40005094
161	0x3f1ba101	0.6079255
162	0x3e259071	0.16168381
163	0x3dc6cd85	0.097071685
164	0xbcc97ad0	-0.024594694
165	0xbe8f2dd9	-0.27964666
166	0x3ee8e77e	0.45489115
167	0x3eda76b6	0.42668694
168	0x3f2c3365	0.6726592
169	0xbe526884	-0.20547682
170	0xbd7c9182	-0.061662205
171	0xbea36091	-0.31909612
172	0x3e041d5e	0.12901828
173	0x3e5a3d4f	0.2131245
174	0xbf685637	-0.90756553
175	0x3f43bd0e	0.7646035
176	0x3f3dadaa	0.74093115
177	0x3f4766e3	0.7789137
178	0xbea7511d	-0.32679072
179	0x3f08eefa	0.5348965
180	0xbed2eda6	-0.41196936
181	0x3e90cb46	0.28280085
182	0xbf2b2f12	-0.668687
183	0xbe71ba27	-0.23606168
184	0x3eb6859d	0.35648814
185	0x3dc1256f	0.09430968
186	0x3f0443ae	0.5166577
187	0xbef0ea22	-0.4705363
188	0x3f018ec3	0.5060846
189	0xbe9fe6f6	-0.31230897
190	0x3ec5f6b1	0.38664773
191	0x3dcabacc	0.0989891
192	0xbf93adff	-1.1537474
193	0x3f9201d6	1.140681
194	0x3e400b65	0.18754347
195	0x3f67c733	0.9053833
196	0x3f4bb23a	0.7956883
197	0x3f273026	0.65307844
198	0x3ea754d7	0.32681915
199	0x3d7fa27d	0.06241082
200	0x3dfec18d	0.12439261
201	0xbecc0fd8	-0.39855838
202	0x3efba518	0.49149394
203	0x3eea5f48	0.4577582
204	0x3f06a42b	0.5259425
205	0x3e426375	0.18983252
206	0x3e9c2e50	0.30504084
207	0x3bf84b1b	0.0075773126
208	0x3e476875	0.19473441
209	0xbe3707d8	-0.17874086
210	0xbdb9f127	-0.09079199
211	0x3be55610	0.006998785
212	0xbc56c0f6	-0.013107529
213	0x3f2317e1	0.6370831
214	0x3eaf20b9	0.34204653
215	0x3ebe25c9	0.37138203
216	0xbecf983b	-0.4054583
217	0x3d3bfb4a	0.045893945
218	0x3e888d73	0.26670417
219	0xbef42021	-0.47680762
220	0x3eb2bb1f	0.34908387
221	0xbefa7525	-0.489175
222	0xbdc3afd5	-0.09555022
223	0x3ebae245	0.36500755
224	0x3ec5ff76	0.38671464
225	0x3eeb8dfc	0.46006763
226	0x3dfd872c	0.123792976
227	0x3c848422	0.016176287
228	0x3e8b2344	0.27175343
229	0x3e4af269	0.19819035
230	0xbdb7a748	-0.08967453
231	0x3b9e66d2	0.0048340345
232	0x3e6bab1e	0.23014495
233	0xbdec601d	-0.1154177
234	0x3dd53a96	0.10411565
235	0xbef89c26	-0.48556632
236	0xbdfde7e8	-0.12397748
237	0x3ede80a1	0.4345751
238	0xbee52de3	-0.4476157
239	0x3f0275ac	0.50960803
240	0x3ca1ed4b	0.01976647
241	0xbf4afb50	-0.7928972
242	0xbe966afa	-0.29378492
243	0xbe0fef9e	-0.1405625
244	0x3f03cbe5	0.51482993
245	0x3e747f9a	0.23876801
246	0xbd1481c4	-0.036256567
247	0x3f288848	0.6583295
248	0x3ef78ee4	0.48351204
249	0x3e1c23ed	0.1524808
250	0x3ec615f9	0.3868864
251	0x3e8aa805	0.27081314
252	0xbefd68fc	-0.4949416
253	0x3ed3864a	0.41313392
254	0xbe39e23e	-0.18152711
255	0xbeb1d6ed	-0.34734288

gconv_lstm.cell_list.1.gconv.bias f4 [32]
0	0x3ef914ca	0.48648673
1	0x3e5877e7	0.21139489
2	0x3f2c7caf	0.6737775
3	0x3ecb4549	0.39701298
4	0x3dfda0c1	0.12384177
5	0x3ec30167	0.38087007
6	0x3e28cccf	0.16484378
7	0x3e658ad0	0.22416234
8	0x3eb02104	0.3440019
9	0x3b67d1eb	0.0035372924
10	0x3c18b875	0.009321322
11	0x3e3cfc5d	0.18455644
12	0x3bf16a19	0.007367384
13	0xbcdb6f95	-0.026786605
14	0x3ce70ff1	0.028205844
15	0x3ddcee9f	0.10787701
16	0x3f0af944	0.542866
17	0x3e6076d0	0.21920323
18	0x3edd9c80	0.43283463
19	0x3ee3a20c	0.4445957
20	0x3dd0c717	0.101942234
21	0x3ee6e001	0.45092776
22	0x3e3c9b57	0.18418632
23	0x3e3bbb9a	0.18333283
24	0xbe75dd1b	-0.24010126
25	0x3c9823b4	0.018571712
26	0x3e1691d3	0.14704065
27	0x3e677a58	0.22605264
28	0xbdea6899	-0.11445732
29	0xbe65fc01	-0.22459413
30	0xbda9dbb3	-0.082938574
31	0x3e24885b	0.1606764

gconv_lstm.cell_list.1.gconv.lin.weight f4 [32, 16]
0	0x3f07bd87	0.5302357
1	0xbefd5a51	-0.49482968
2	0xbb640a62	-0.0034796228
3	0x3f5dd9f3	0.8666069
4	0x3f1f16f9	0.6214443
5	0x3d7f0203	0.062257778
6	0xbeb123e1	-0.34597686
7	0xbe99f990	-0.30073214
8	0x3e87be9b	0.26512608
9	0x3f694c3a	0.9113194
10	0x3d33347c	0.043751225
11	0x3e888822	0.2666636
12	0xbe14aa22	-0.14518026
13	0xbe0ea16a	-0.13928762
14	0xbec82928	-0.390939
15	0x3d7b8209	0.061403308
16	0x3dde9441	0.10868121
17	0xbe619e54	-0.22033054
18	0xbe5ac8da	-0.21365681
19	0x3dc0e550	0.09418738
20	0x3eccd626	0.40007132
21	0xbc8ef62c	-0.017451368
22	0xbcc12003	-0.023574835
23	0x3ebecd35	0.37265936
24	0xbe11d70a	-0.14242187
25	0x3e9a960a	0.30192596
26	0x3ea602bd	0.32423964
27	0x3e4b9611	0.19881465
28	0xbf03753d	-0.51350766
29	0xbeb65529	-0.35611847
30	0xbeac279c	-0.3362397
31	0x3e50c0bf	0.20386027
32	0x3e305028	0.17218077
33	0x3d777861	0.060417537
34	0xbdcdfbd8	-0.10057801
35	0x3c5c14e9	0.01343272
36	0x3e653f53	0.22387438
37	0x3f10263d	0.56308347
38	0xbf1f0c53	-0.6212818
39	0x3f460328	0.77348566
40	0x3f111a76	0.56681
41	0x3ea18505	0.31546798
42	0xbf225de4	-0.63424516
43	0xbf5609f1	-0.8360892
44	0x3f9e9f99	1.2392455
45	0x3f5250af	0.82154363
46	0x3e94950d	0.29019967
47	0xbe8a8146	-0.27051753
48	0x3f2d63d8	0.67730474
49	0xbf1cdc7e	-0.61273944
50	0xbf0dc11a	-0.55372775
51	0x3f00e3a0	0.5034733
52	0x3f414d93	0.75508994
53	0x3e9582dd	0.29201403
54	0xbead3cf6	-0.33835572
55	0x3e9fe905	0.31232467
56	0x3eccf203	0.4002839
57	0x3f757c19	0.95892483
58	0xbef7e2b3	-0.48415145
59	0x3dc31e78	0.09527296
60	0x3e456283	0.1927586
61	0xbb8d6040	-0.0043144524
62	0xbeafe79a	-0.34356385
63	0xbe494ccd	-0.19658203
64	0x3f4f4004	0.80957055
65	0xbf070994	-0.5274899
66	0xbf706ff8	-0.9392085
67	0x3eac6a8a	0.33675033
68	0x3f5fe276	0.87454927
69	0x3fb37f7f	1.4023284
70	0xbf27e549	-0.65584236
71	0x3f9126dd	1.1339985
72	0x3eb9a7eb	0.36260924
73	0xbea675aa	-0.32511646
74	0xbeb45d35	-0.3522736
75	0xbf794ed7	-0.97385925
76	0x3f91caf3	1.139006
77	0x3f7a4e6e	0.97775924
78	0x3f0bf9ee	0.5467824
79	0xbfa61cc6	-1.2977531
80	0x3f60af51	0.8776751
81	0xbf3735f6	-0.7156671
82	0xbecd0156	-0.40040082
83	0x3f29c708	0.6631932
84	0x3f6b92bc	0.92020774
85	0x3f6611e7	0.89871067
86	0xbf5b5a8e	-0.8568505
87	0x3f469c95	0.77582675
88	0x3f4aa1a3	0.7915289
89	0x3fae0cb1	1.3597623
90	0xbf0e165b	-0.5550286
91	0xbf1e2620	-0.61776924
92	0x3f57596a	0.8412081
93	0x3f415725	0.75523597
94	0x3f0cc246	0.5498394
95	0xbe908f07	-0.2823412
96	0x3e989282	0.29799277
97	0xbea12b14	-0.31478179
98	0xbed47523	-0.41495618
99	0x3e1dd35b	0.15412657
100	0x3da2de83	0.07952597
101	0x3f2ce324	0.6753409
102	0xbf153a6f	-0.5829229
103	0x3e301405	0.17195137
104	0x3f140756	0.57823694
105	0x3dec67ee	0.115432605
106	0xbf584756	-0.8448385
107	0xbf33402f	-0.7001981
108	0x3f0b68c4	0.54456735
109	0x3f0f21e4	0.5591109
110	0x3eb7dd37	0.3591096
111	0x3ca59b46	0.020215642
112	0x3e653f5d	0.22387452
113	0xbf3307aa	-0.6993357
114	0xbf001a4d	-0.5004013
115	0x3d981059	0.07424993
116	0x3d8e40bb	0.0694594
117	0x3f099dc1	0.5375634
118	0xbe89554a	-0.26822883
119	0x3f2202aa	0.63285315
120	0x3f320f47	0.6955456
121	0x3f16b829	0.58874756
122	0xbe8827cc	-0.26592863
123	0xbf2067cb	-0.62658376
124	0x3ef2004e	0.47265857
125	0x3f4b0c86	0.79315984
126	0x3f036769	0.51329666
127	0xbf42766f	-0.75961965
128	0x3e374f49	0.17901339
129	0x3d2e0cd3	0.0424927
130	0x3bdd3d00	0.0067516565
131	0x3e720b65	0.23637159
132	0x3e8b0cbb	0.2715815
133	0x3e19a2b7	0.15003477
134	0xbeb69d80	-0.35667038
135	0x3e52d6ba	0.20589724
136	0x3ec2a8c0	0.3801937
137	0x3f5150c1	0.81763846
138	0xbde2b560	-0.11069751
139	0x3bfbb48a	0.007681434
140	0x3db9f1fd	0.09079359
141	0x3da51ac8	0.08061749
142	0xbea58c64	-0.32333672
143	0x3e5ca59b	0.21547548
144	0x3e5dcf46	0.216611
145	0xbdfc0dd0	-0.12307322
146	0xbd5e54e2	-0.05428017
147	0xbe13d880	-0.14438057
148	0xbeab881a	-0.33502275
149	0xbcc0e3f1	-0.023546191
150	0x3d666965	0.056252856
151	0x3e1923fb	0.14955132
152	0x3f517a5b	0.81827325
153	0x3e850f6d	0.2598833
154	0xbe527aa5	-0.20554598
155	0xbe6e7e6a	-0.2329041
156	0x3ef25c2a	0.4733594
157	0x3ec7973f	0.3898258
158	0x3d8b15c6	0.06791262
159	0x3d409400	0.047016144
160	0xbc507f08	-0.012725599
161	0xbf8ae72e	-1.08518
162	0xbf2f0077	-0.68360084
163	0x3e87e384	0.26540768
164	0x3f6627a7	0.89904255
165	0x3ebf3d68	0.37351537
166	0xbf059c3e	-0.5219153
167	0x3f14b44b	0.58087605
168	0x3e960bb9	0.2930582
169	0x3ebd1290	0.36928225
170	0xbf56f7b2	-0.83971703
171	0xbee0a8d3	-0.43878803
172	0x3f68ba4f	0.90909284
173	0x3f6107d2	0.8790256
174	0x3f47d5f3	0.78060836
175	0xbed5bbea	-0.4174493
176	0x3e375a0b	0.17905442
177	0xbe1c7600	-0.15279388
178	0xbead7693	-0.33879527
179	0x3eb30c0b	0.34970126
180	0x3e56e1fc	0.20984644
181	0x3e52c191	0.20581652
182	0x3e075bcc	0.13218611
183	0xbd73a194	-0.059480265
184	0x3f038fba	0.51391184
185	0x3f4d4572	0.8018409
186	0xbf0044ae	-0.50104797
187	0xbebb57ea	-0.3659051
188	0x3f14fd7c	0.58199286
189	0x3f216312	0.63041794
190	0x3de39dcb	0.11114081
191	0x3c52bcb0	0.012862369
192	0x3e97c3f8	0.296417
193	0xbf5b1902	-0.85585034
194	0xbecac012	-0.39599663
195	0x3b96f318	0.0046066158
196	0x3f147122	0.57985127
197	0x3ec09990	0.3761716
198	0xbf0a98fc	-0.54139686
199	0x3eafc5a3	0.34330472
200	0x3f24ca51	0.6437121
201	0x3f0dfd93	0.5546505
202	0xbf1bb7a2	-0.60827076
203	0xbf7dac19	-0.99090725
204	0x3f3133c5	0.6921962
205	0x3ec1c18f	0.37842986
206	0x3e8f6753	0.28008518
207	0xbf25fd4f	-0.64839643
208	0xbbf3b551	-0.007437386
209	0xbf7fd16e	-0.9992894
210	0xbe74a73c	-0.2389192
211	0x3eaafb0d	0.33394662
212	0x3e983c97	0.29733726
213	0x3ed16e25	0.40904346
214	0xbe8fe492	-0.28104073
215	0x3e93db07	0.28878042
216	0x3f6dad0a	0.9284216
217	0x3f81554f	1.0104159
218	0xbebfc2f2	-0.3745342
219	0xbebcca7e	-0.3687324
220	0x3f33e0f4	0.70265126
221	0x3ee1c8a3	0.44098386
222	0x3f320d2b	0.6955134
223	0xbebf8199	-0.37403563
224	0x3df8b60b	0.12144097
225	0xbf0da3e3	-0.55328196
226	0xbdb5c12a	-0.08874734
227	0x3eaa513b	0.332651
228	0x3ee21ad8	0.44161105
229	0x3e64be9b	0.22338335
230	0xbd041d64	-0.03225459
231	0x3e1d0ce4	0.15336949
232	0x3eb4da75	0.3532292
233	0x3efc2d1f	0.49253175
234	0xbe4381ed	-0.19092532
235	0xbebc0a56	-0.36726636
236	0x3f0fa9a5	0.5611823
237	0x3f18a611	0.596284
238	0xbe52ba2c	-0.20578831
239	0x3d3eec82	0.04661227
240	0x3ed6e95a	0.41974908
241	0xbeab3452	-0.33438355
242	0xbdb75ea4	-0.08953598
243	0xbb4c3d41	-0.003116444
244	0x3eb47a10	0.35249376
245	0x3e257117	0.16156422
246	0xbf19f9f9	-0.60147053
247	0xbcacd8a1	-0.02109939
248	0x3ec65dc2	0.38743407
249	0x3dc71dff	0.09722518
250	0xbead7e1c	-0.33885276
251	0xbe94cf6c	-0.290645
252	0x3f23b7a8	0.6395211
253	0x3e64828e	0.22315428
254	0x3e8df09a	0.27722627
255	0xbeedfe3e	-0.46483034

gconv_lstm.cell_list.2.gconv.bias f4 [32]
0	0x3e91152b	0.28336462
1	0x3e8c9671	0.27458528
2	0x3e10016e	0.14063045
3	0x3ea33de1	0.31883147
4	0x3e556f9f	0.20843361
5	0x3e2f75e0	0.1713481
6	0x3e3a0ad2	0.1816819
7	0x3ecc7d57	0.39939377
8	0xbe4f207e	-0.20227239
9	0x3d3cec91	0.046124045
10	0xbcd09111	-0.025459798
11	0xbdf499c5	-0.11943392
12	0x3d809982	0.06279279
13	0x3bcbb34b	0.0062164417
14	0x3c866726	0.016406607
15	0xbe724f14	-0.23662978
16	0x3ec11f22	0.37719065
17	0x3ec2fbd0	0.38082743
18	0x3e20790f	0.1567118
19	0x3f0fc38a	0.56157744
20	0x3eb65ac0	0.35616112
21	0x3e869a59	0.26289633
22	0x3e503b2f	0.20335077
23	0x3f2c0ad5	0.6720403
24	0xbd06a24e	-0.03286963
25	0x3a16c2ca	0.0005751072
26	0xbd5de6ca	-0.054175176
27	0xbd4a8521	-0.049443368
28	0xbdaee13f	-0.08539056
29	0x3d84a460	0.064766645
30	0x3d2fc96d	0.042916704
31	0xbdc778f7	-0.09739869

gconv_lstm.cell_list.2.gconv.lin.weight f4 [32, 16]
0	0x3eeb167d	0.45915595
1	0x3f86cc85	1.0531164
2	0xbf2b5895	-0.6693204
3	0xbef204e0	-0.47269344
4	0x3f3baf53	0.733144
5	0x3f14286a	0.57874167
6	0x3eba39a0	0.3637209
7	0xbbc29e89	-0.005939309
8	0xbe69acd7	-0.2281984
9	0x3da0284f	0.07820188
10	0x3e74c161	0.23901893
11	0xbf692ad6	-0.9108099
12	0xbe8f3afb	-0.27974686
13	0xbe5731eb	-0.21015136
14	0xbca4e767	-0.020129872
15	0xbe9535dd	-0.29142657
16	0xb9c95905	-0.00038404032
17	0x3eab6b81	0.33480456
18	0xbf528a28	-0.8224206
19	0xbf0e9866	-0.5570129
20	0x3f6b29a6	0.91860425
21	0x3ea2f4bd	0.31827345
22	0x3e80724e	0.25087208
23	0xbf141863	-0.5784971
24	0xbeed2218	-0.46315074
25	0x3e21a669	0.15786137
26	0x3e81b72d	0.25335065
27	0xbefc70a5	-0.4930469
28	0xbc067a06	-0.008207804
29	0xbd6e7d53	-0.058224987
30	0x3e54a1c2	0.2076483
31	0xbf6370c7	-0.8884396
32	0x3eb00c24	0.34384263
33	0x3eb33719	0.35002974
34	0xbf37ff37	-0.718738
35	0xbf5b8f57	-0.85765594
36	0x3f53a989	0.82680565
37	0x3f1ff133	0.62477416
38	0xbe03f9f1	-0.12888314
39	0xbe32b900	-0.17453384
40	0x3e17ade1	0.14812423
41	0xbe80639d	-0.25076
42	0x3e41634b	0.18885534
43	0xbe38261c	-0.17983288
44	0x3e600c95	0.218798
45	0xbe140031	-0.14453198
46	0x3db554aa	0.08854039
47	0xbeb3df54	-0.35131323
48	0x3e2fac13	0.17155485
49	0x3f87f03f	1.0620192
50	0xbf8e93fc	-1.1138911
51	0xbf85f51a	-1.0465424
52	0x3fba22f2	1.4541914
53	0x3f833f10	1.025362
54	0x3f4cce7b	0.80002564
55	0xbe61377a	-0.21993819
56	0xbf069ed3	-0.52586097
57	0xbf5d30dd	-0.86402684
58	0xbd413da0	-0.04717791
59	0xbf6310c0	-0.88697433
60	0x3e5efe9b	0.21776812
61	0xbf263074	-0.64917684
62	0x3e972497	0.29520103
63	0xbf3a2f33	-0.7272827
64	0x3e8fd041	0.28088573
65	0x3e6f38e1	0.23361541
66	0xbeed3848	-0.46332002
67	0xbf677a38	-0.90420866
68	0x3f050ca1	0.51972395
69	0x3e2293b5	0.15876658
70	0x3e3172b4	0.17328912
71	0xbe4137b5	-0.18868907
72	0xbf0e64e2	-0.55622685
73	0x3e405b46	0.18784818
74	0x3d2754ef	0.040852483
75	0xbe8d1863	-0.27557668
76	0x3be406ab	0.0069588027
77	0x3e0e08b6	0.1387051
78	0x3d099b90	0.03359562
79	0xbeb9a245	-0.36256614
80	0x3e9e31ff	0.3089752
81	0x3f2014c2	0.62531674
82	0xbf39d9a5	-0.72597724
83	0xbf9c49f9	-1.2210075
84	0x3f7543df	0.9580669
85	0x3ed7884c	0.42096174
86	0x3ed90fec	0.4239496
87	0xbea78f7a	-0.3272665
88	0xbe9c417a	-0.30518705
89	0x3bc25d77	0.005931552
90	0x3eca83f6	0.39553803
91	0xbeb356a6	-0.35027045
92	0xbe82a073	-0.25513038
93	0xbe49fc40	-0.19725132
94	0x3e8ee440	0.27908516
95	0xbf7d67b3	-0.9898636
96	0x3eca0755	0.3945872
97	0x3f2ee352	0.68315613
98	0xbf5774fa	-0.8416287
99	0xbf5cd5d2	-0.86263764
100	0x3f5dd9a2	0.86660206
101	0x3e95d2fc	0.2926253
102	0xba65c70e	-0.0008765318
103	0xbdd9fca5	-0.10643891
104	0x3e41860d	0.18898793
105	0x3e0757d7	0.13217102
106	0x3dce8ec5	0.10085825
107	0xbe5de1aa	-0.21668115
108	0xbe9e6992	-0.3093992
109	0xbe06c571	-0.13161255
110	0x3edda038	0.432863
111	0xbf0346d5	-0.51279956
112	0x3e83538f	0.25649688
113	0x3f870a01	1.0549928
114	0xbf1265b4	-0.57186437
115	0xbf545a00	-0.8294983
116	0x3f583a1f	0.84463686
117	0x3f11acd2	0.5690433
118	0xbbb1e1d9	-0.0054285345
119	0xbeffbf85	-0.49950805
120	0xbf1d4c41	-0.6144448
121	0xbedfce1a	-0.4371193
122	0xbde88aed	-0.11354623
123	0xbf4c9713	-0.7991802
124	0xbe97f271	-0.29677156
125	0xbf0ad605	-0.5423282
126	0xbdb6ba67	-0.08922272
127	0xbee0fdbb	-0.4394358
128	0xbc49b6fa	-0.012311691
129	0xbebf0821	-0.3731089
130	0xbe3b13bb	-0.18269245
131	0x3d3968b2	0.04526586
132	0x3c32a2e9	0.010903099
133	0xbd8b9ab0	-0.06816614
134	0x3eb18215	0.34669557
135	0x3e006a32	0.1254051
136	0x3d63c503	0.055607807
137	0x3ed10982	0.40827566
138	0x3fafe0ee	1.3740518
139	0xbf34391d	-0.7039965
140	0x3cd1814e	0.025574353
141	0xbf84b39f	-1.0367316
142	0xbf905449	-1.1275722
143	0xbf462e93	-0.77414817
144	0x3eb985e3	0.3623496
145	0x3e2950bd	0.16534705
146	0x3df46b10	0.11934483
147	0x3ec962c1	0.39333156
148	0xbe16363a	-0.14669123
149	0x3e14fa35	0.14548571
150	0xbe8ef378	-0.27920127
151	0x3e908ba4	0.28231537
152	0xbdba4536	-0.09095232
153	0xbe5c3958	-0.2150625
154	0x3e90aff0	0.2825923
155	0xbf053809	-0.5203863
156	0x3dce34e0	0.10068679
157	0xbf0d9f83	-0.5532152
158	0xbe819f81	-0.25317004
159	0xbeb6e7e9	-0.35723808
160	0x3f34e683	0.7066423
161	0x3ea56be6	0.32308882
162	0xbe2c4673	-0.16823749
163	0xbe670bb8	-0.22563064
164	0x3d8e9d2f	0.06963574
165	0x3e01d0db	0.12677328
166	0x3eca4a5d	0.3950986
167	0xbf19b9cf	-0.60049146
168	0x3e33d444	0.17561442
169	0xbe839c46	-0.25705165
170	0xbe466995	-0.19376214
171	0x3f27e8e1	0.6558972
172	0x3dbac9fb	0.09120556
173	0x3e08893c	0.13333601
174	0x3e9ed136	0.3101899
175	0x3eadb007	0.3392336
176	0x3f00b824	0.50280976
177	0x3eee5b47	0.46554014
178	0xbe1c849b	-0.1528496
179	0xbd811c92	-0.063042775
180	0x3f2820f5	0.6567529
181	0x3f2d5b90	0.6771784
182	0x3f87370b	1.0563673
183	0xbf3d6f4c	-0.7399795
184	0xbf2a0387	-0.6641163
185	0xbf739c5f	-0.9516048
186	0x3cb1a72a	0.021686155
187	0xbe4b4a87	-0.19852649
188	0x3f39c8cd	0.7257202
189	0xbeff8fbf	-0.49914357
190	0xbe552edf	-0.20818661
191	0xbe9448dd	-0.2896184
192	0xbdbe60bd	-0.09295795
193	0xbe4ed557	-0.2019857
194	0xbdcfcae7	-0.101461224
195	0x3f0b259c	0.5435426
196	0x3e072e57	0.13201271
197	0x3e244fab	0.16046016
198	0xbe9de92a	-0.30841953
199	0xbdb24615	-0.08704773
200	0x3e2e0c1a	0.16996804
201	0xbe5923d4	-0.21205074
202	0x3e96a2f8	0.2942121
203	0xbf2df286	-0.67948186
204	0xbdc85160	-0.09781146
205	0xbf338326	-0.7012199
206	0xbea83145	-0.3285009
207	0xbe9abd41	-0.30222514
208	0x3d59b253	0.05314858
209	0x3da2272d	0.079176284
210	0x3e4efe8f	0.20214294
211	0xbecd2e6e	-0.40074486
212	0x3e8d042b	0.27542242
213	0x3eced33e	0.4039554
214	0xbea6cd87	-0.3257868
215	0xbd920540	-0.071299076
216	0x3f9421e0	1.1572838
217	0x3e019b7f	0.12656973
218	0x3ea0c5cf	0.31400916
219	0xbe914036	-0.28369302
220	0xbdc311c7	-0.09524875
221	0x3c981909	0.018566625
222	0xbd284550	-0.041081727
223	0x3d38aec4	0.045088544
224	0x3ef327bf	0.4749126
225	0x3e78913b	0.24274151
226	0xbec84a73	-0.391193
227	0xbefe41ef	-0.49659678
228	0x3e0174e8	0.12642252
229	0x3e727009	0.2367555
230	0x3e355b42	0.17710593
231	0xbefaa686	-0.48955172
232	0x3ef38148	0.4755957
233	0xbde90709	-0.11378295
234	0xbebb97f9	-0.36639383
235	0x3f49b666	0.7879394
236	0xbb3d87b7	-0.0028920004
237	0xbdd6175d	-0.10453675
238	0x3e6f8f02	0.23394397
239	0x3f4ef16e	0.8083714
240	0x3e92b055	0.28650156
241	0x3db97096	0.09054677
242	0xbdeca9e6	-0.11555843
243	0x3e171363	0.14753489
244	0x3e2ef895	0.17087014
245	0x3d7508cc	0.059822842
246	0xbd2678a8	-0.04064241
247	0xbe6a1384	-0.22859007
248	0xbddce17e	-0.10785197
249	0x3f4474de	0.76740825
250	0x3f8d8f15	1.105929
251	0xbfdda0f4	-1.7314744
252	0x3e815247	0.25258085
253	0xbf9cd4a2	-1.225239
254	0xbf8b2f78	-1.0873861
255	0xbf183735	-0.5945924

fc.weight f4 [1, 8]
0	0xc01c6fba	-2.4443192
1	0xc03547ed	-2.832515
2	0x3f039bfb	0.5140988
3	0xbf7b2158	-0.98097754
4	0x40355c1a	2.8337464
5	0xbf13208c	-0.5747154
6	0xbf25184a	-0.6449019
7	0xbfd72edf	-1.6811179
