pretrain/encoder-decoder/inflow_encoder.pth (torch, 2560 bytes, 3 tensors)

conv1.bias f4 [16]
0.08147408 0.08203439 0.082289495 -0.05991825 0.009173089 -0.07824611 -0.08164113 0.060127284
-0.11583538 0.0938396 0.0846335 -0.08176339 -0.05033507 0.08469905 -0.082495466 0.081381254
00000000: e2db a63d a501 a83d 6587 a83d d76c 75bd
00000010: b94a 163c 7f3f a0bd 7733 a7bd 0748 763d
00000020: 1a3b edbd fa2e c03d 5454 ad3d 9073 a7bd
00000030: 252c 4ebd b276 ad3d 62f3 a8bd 37ab a63d

conv1.lin.weight f4 [16, 1]
0.4536948 0.45305055 0.548776 0.054308657 -0.33761787 0.15922289 -0.56278086 -0.06760229
-0.119647086 0.22585446 0.8098218 -0.6342139 0.12985045 0.3366754 -0.68888897 0.38882002
00000000: af4a e83e 3ef6 e73e 957c 0c3f c172 5e3d
00000010: 40dc acbe 530b 233e 6812 10bf 1273 8abd
00000020: 8809 f5bd 6446 673e 7b50 4f3f d85b 22bf
00000030: 84f7 043e b860 ac3e 075b 30bf 6b13 c73e

conv2.lin.weight f4 [1, 16]
-0.6939443 -0.40348652 -0.37905112 0.13054077 -9.144536e-05 0.40807953 0.5953853 -0.10800891
0.20101708 -0.14159507 -0.20910569 0.5421701 0.022934658 -0.24239412 0.3665289 -0.21109426
00000000: 55a6 31bf c995 cebe fd12 c2be 7bac 053e
00000010: 5bc6 bfb8 cdef d03e 2c6b 183f c733 ddbd
00000020: 6cd7 4d3e 4cfe 10be cd1f 56be a9cb 0a3f
00000030: 77e1 bb3c 2a36 78be ada9 bb3e 1829 58be
