pretrain/encoder-decoder/speed_decoder.pth (torch, 2544 bytes, 3 tensors)

conv1.bias f4 [16]
-0.07774754 -0.07849189 -0.0785586 0.07838683 0.078522354 -0.078492045 -0.073761806 0.07837272
-0.07843897 0.08126573 -0.078991905 0.078487486 0.0826914 0.07835917 -0.079813324 -0.07838984
00000000: 1a3a 9fbd 5bc0 a0bd 55e3 a0bd 4689 a03d
00000010: 54d0 a03d 70c0 a0bd 6e10 97bd e081 a03d
00000020: 9ca4 a0bd a66e a63d 82c6 a1bd 0cbe a03d
00000030: 1c5a a93d c67a a03d 2b75 a3bd da8a a0bd

conv1.lin.weight f4 [16, 1]
-0.16221519 0.1299618 -0.049071938 -0.51937306 -0.09378019 -0.05544557 0.1885056 -0.54814696
0.21784031 -0.25103542 -0.33543825 -0.18828566 0.047709517 -0.40837112 -0.45753118 0.3364843
00000000: bd1b 26be b514 053e a8ff 48bd a2f5 04bf
00000010: d40f c0bd e51a 63bd 9d07 413e 5c53 0cbf
00000020: 8811 5f3e b787 80be 90be abbe f5cd 40be
00000030: 0e6b 433d 0516 d1be 8741 eabe ac47 ac3e

conv2.lin.weight f4 [1, 16]
0.5161159 0.47134548 0.4106707 -0.5989511 -0.50648946 0.49470496 0.043483734 -0.53902453
0.56734616 -0.07108648 0.7852272 -0.26587662 -0.12899445 -0.38728294 0.20502403 0.4528097
00000000: 2c20 043f 3254 f13e 6e43 d23e dc54 19bf
00000010: 4ba9 01bf f849 fd3e 001c 323d 83fd 09bf
00000020: 993d 113f ca95 91bd a604 493f fb20 88be
00000030: 1f17 04be f349 c6be d2f1 513e acd6 e73e
