pretrain/encoder-decoder/speed_discriminator.pth (torch, 9816 bytes, 7 tensors)

gconv_lstm.cell_list.0.gconv.bias f4 [32]
0	0x3e4c4168	0.19946826
1	0x3ea5b60e	0.3236546
2	0x3e69f51c	0.22847408
3	0x3e92afe6	0.28649825
4	0x3e4ba7da	0.19888249
5	0x3e84fb45	0.25972953
6	0x3e024923	0.12723212
7	0x3e808e7d	0.2510871
8	0x3e34dbce	0.17661974
9	0x3e625226	0.2210165
10	0x3e2fd505	0.17171104
11	0x3e5292ae	0.20563766
12	0x3e78726c	0.24262398
13	0x3e5472d4	0.20746928
14	0x3d8b607e	0.06805514
15	0x3e5244ed	0.20534106
16	0x3e4504b5	0.19240077
17	0x3ea695fd	0.32536307
18	0x3e826623	0.2546855
19	0x3e9931f7	0.29920933
20	0x3e61ad9c	0.22038883
21	0x3e9a808b	0.30176196
22	0x3dfd8fa6	0.123809144
23	0x3e854d2a	0.26035434
24	0x3e0baa6a	0.13639227
25	0xbe57bcad	-0.21068068
26	0x3df3f2ee	0.119115695
27	0xbe66e820	-0.22549486
28	0x3dda3400	0.106544495
29	0x3e0bf977	0.13669382
30	0x3e23c27b	0.15992157
31	0x3e136169	0.14392628

gconv_lstm.cell_list.0.gconv.lin.weight f4 [32, 9]
0	0xbe891e20	-0.26780796
1	0x3d836f2d	0.064176895
2	0xbf1af50c	-0.6053016
3	0x3cce0109	0.025146978
4	0x3ed02c9d	0.40659037
5	0xbe58ec02	-0.2118378
6	0xbd361ec5	-0.044462938
7	0x3e4e2710	0.20132089
8	0xbe86fac3	-0.2636319
9	0xbe6d7289	-0.23188223
10	0xbee754f9	-0.45182016
11	0xbe12433d	-0.14283462
12	0xbf053f0a	-0.52049315
13	0x3c3d12f7	0.011540166
14	0xbf1ab70a	-0.60435545
15	0xbecdf07b	-0.40222535
16	0x3f1344c5	0.5752681
17	0xbc86265c	-0.016375713
18	0xbe27baa8	-0.16379797
19	0xbf4ca6dc	-0.7994211
20	0xbf365325	-0.7122062
21	0xbf36eef8	-0.7145839
22	0x3efbc352	0.49172455
23	0xbec484f6	-0.3838269
24	0xbf0b8121	-0.5449391
25	0xbac05da2	-0.0014676342
26	0xbebdb31b	-0.3705071
27	0xbe1399ed	-0.14414187
28	0xbe4b2ef7	-0.19842134
29	0xbd63d1ee	-0.055620126
30	0xbe7a582e	-0.244477
31	0x3f09bcaf	0.53803533
32	0x3cd0614b	0.025437018
33	0xbe4c6108	-0.1995889
34	0x3db24232	0.08704032
35	0xbeec8925	-0.46198383
36	0xbec5f015	-0.3865973
37	0xbecb2893	-0.39679393
38	0xbedcc962	-0.43122393
39	0xbd4f3632	-0.050588794
40	0x3ed6fa56	0.41987866
41	0x3ddc7bdf	0.10765814
42	0xbef8d9d4	-0.4860369
43	0x3ea906e8	0.33013082
44	0x3e052c1d	0.13005109
45	0xbef432d9	-0.47695044
46	0xbf02516e	-0.509055
47	0xbe851fdd	-0.26000872
48	0xbe0efb23	-0.13962989
49	0x3edffe06	0.43748492
50	0xbf19e5d3	-0.6011631
51	0x3cb8dd50	0.022566468
52	0x3edde04b	0.43335184
53	0xbeb94cba	-0.3619135
54	0xbea1a60f	-0.31572005
55	0xbe811b82	-0.252163
56	0xbed8029b	-0.42189488
57	0x3dde120d	0.10843287
58	0xbd949c31	-0.07256354
59	0xbb257232	-0.0025245068
60	0xbd5a1b8d	-0.05324893
61	0x3d4874cd	0.048939515
62	0xbec92a58	-0.39290118
63	0xba4cd7c1	-0.0007814132
64	0xbea518ed	-0.3224558
65	0x3d358bed	0.044322897
66	0xbef7c279	-0.48390558
67	0x3eb3aa1b	0.35090718
68	0xbe773c64	-0.24144131
69	0xbeead08f	-0.45862243
70	0x3e53b0bf	0.20672892
71	0xbeecdd99	-0.46262816
72	0xbd4c4d76	-0.04987856
73	0xbf01e580	-0.50740814
74	0xbe526054	-0.20544559
75	0xbef843d7	-0.48489258
76	0x3f286f26	0.657946
77	0xbe031d52	-0.12804154
78	0xbea0f7ac	-0.3143896
79	0x3e131069	0.14361729
80	0xbe7d585c	-0.24740738
81	0x3e1a2ed5	0.15056928
82	0xbe01e54e	-0.12685129
83	0xbcf1803f	-0.029480098
84	0xbe87e36c	-0.26540697
85	0x3f111595	0.56673557
86	0xbf070d39	-0.5275455
87	0xbe18d932	-0.14926603
88	0x3e0aa352	0.13538864
89	0xbc1ed9a8	-0.009695448
90	0xbe8a1acb	-0.26973566
91	0xbefad103	-0.48987588
92	0xbe100e0a	-0.14067855
93	0xbf232f52	-0.6374408
94	0x3f1b6366	0.60698545
95	0xbe4ca36a	-0.19984213
96	0xbebf5c2f	-0.37375018
97	0x3e98dc84	0.2985574
98	0xbe758f5b	-0.23980467
99	0xbdb0ebc9	-0.086387224
100	0xbeffd0b6	-0.4996392
101	0xbeed3c03	-0.46334848
102	0xbf5fa0b0	-0.87354565
103	0x3ec0483c	0.3755511
104	0xbda1b28f	-0.078953855
105	0x3d524b3a	0.051341273
106	0x3e9b2f3a	0.30309469
107	0xbecdd3c5	-0.4020063
108	0xbec62da5	-0.387067
109	0xbf204678	-0.62607527
110	0xbdcb98e7	-0.09941273
111	0xbea4c6fc	-0.32183063
112	0x3f0a06bd	0.5391653
113	0xbde196b6	-0.11015074
114	0xbd258db7	-0.040418353
115	0xbd92f9d3	-0.071765564
116	0xbd516948	-0.051125795
117	0xbe7ae1a5	-0.24500139
118	0xbf207c41	-0.62689596
119	0x3dc130ac	0.094331115
120	0xbee4f3ab	-0.44717154
121	0x3f01a655	0.5064443
122	0xbf23c5aa	-0.63973486
123	0xbe865447	-0.26236174
124	0xbe525caa	-0.20543161
125	0xbe6648e1	-0.22488739
126	0x3e598170	0.21240783
127	0xbb533441	-0.003222719
128	0x3e871b1e	0.26387876
129	0xbd854547	-0.06507354
130	0xbbd564de	-0.0065122684
131	0x3bb5ba43	0.005545886
132	0xbe51cbf0	-0.20487952
133	0x3e607a0b	0.21921556
134	0x3ea6a739	0.32549456
135	0xbeafbeab	-0.34325156
136	0x3dac5cad	0.08416114
137	0xbe8ee6fd	-0.27910605
138	0xbf319a96	-0.69376504
139	0x3f0098b3	0.50233
140	0xbdc5d5b8	-0.09659904
141	0xbeb2d7bb	-0.34930214
142	0x3d302db2	0.04301233
143	0xbbfdd05c	-0.0077457856
144	0xbef59c99	-0.47971037
145	0xbf1f2416	-0.6216444
146	0xbf101451	-0.56281
147	0xbf280fcb	-0.656491
148	0x3f0410cb	0.51588124
149	0xbe3c0356	-0.18360648
150	0xbc48e19d	-0.012260822
151	0x3e631f63	0.22179942
152	0xbe878d65	-0.26475063
153	0xbe3e8d71	-0.18608643
154	0xbdeb3756	-0.11485164
155	0xbecf9679	-0.4054449
156	0xbf1581b2	-0.58401024
157	0x3f0ed9cf	0.558011
158	0x3db2e36c	0.087347835
159	0xbee5c1fe	-0.44874567
160	0xbce8a4e4	-0.028398938
161	0x3b96061b	0.0045783645
162	0xbe1cf6fa	-0.15328589
163	0xbe81d347	-0.25356504
164	0xbd2031a8	-0.039109856
165	0xbf45ee6d	-0.77316934
166	0x3ef8951d	0.48551264
167	0xbe759951	-0.23984267
168	0xbf53c6a3	-0.8272497
169	0x3e69c92c	0.22830647
170	0xbe37cae9	-0.17948498
171	0xbe296ed1	-0.1654618
172	0xbe379c06	-0.17930612
173	0x3d29cbba	0.041454054
174	0xbefb48aa	-0.49078876
175	0x3e130125	0.14355905
176	0x3cf7e3d9	0.030260013
177	0xbf44e2f9	-0.7690883
178	0x3ebc994f	0.36835715
179	0xbf492c53	-0.7858326
180	0xbdb04609	-0.08607108
181	0xbe364d96	-0.17803034
182	0xbe24a493	-0.16078405
183	0xbed1972f	-0.40935656
184	0x3e2ba56a	0.16762319
185	0xbe29fb7a	-0.16599837
186	0xbeaed72b	-0.34148535
187	0x3e3e58e4	0.18588597
188	0xbf2e09f4	-0.6798394
189	0xbd89d4f3	-0.0673007
190	0xbe2211b1	-0.15827061
191	0xbeb276b6	-0.34856194
192	0xbf38d640	-0.7220192
193	0x3e0763ef	0.13221715
194	0xbc590954	-0.013246853
195	0xbd2a3b2c	-0.041560337
196	0x3ed8cbf1	0.42343095
197	0xbee7a855	-0.45245615
198	0xbe7a8591	-0.24465014
199	0x3e18c9a2	0.14920667
200	0xbea03797	-0.31292412
201	0x3ed99407	0.42495748
202	0xbd29681d	-0.041359056
203	0x3e1930b4	0.14959985
204	0x3d18cb2c	0.037303135
205	0x3ea8180d	0.3283085
206	0x3eae1a3c	0.3400439
207	0xbdae7cdf	-0.08519911
208	0xbe2d9468	-0.16951144
209	0xbef727e1	-0.48272613
210	0xbeb87f03	-0.36034402
211	0x3e506a96	0.2035316
212	0xbf15284a	-0.582646
213	0xbf15a488	-0.5845418
214	0x3e9d5daf	0.30735537
215	0xbe87ca83	-0.26521692
216	0x3eb11f8d	0.34594384
217	0x3e038e6f	0.12847303
218	0xbd4489b9	-0.047982905
219	0x3ea42a2c	0.32063425
220	0xbd22fcac	-0.039791748
221	0x3f075dec	0.5287769
222	0x3efcc96d	0.49372426
223	0x3e6aaf2e	0.22918388
224	0x3e33fdf5	0.17577346
225	0x3e884f12	0.26622826
226	0x3ea022dc	0.31276596
227	0x3e2d1dc6	0.16905889
228	0xbdf34687	-0.118786864
229	0xbed5b967	-0.41743013
230	0x3eed241a	0.46316606
231	0x3ed7e8f5	0.4216992
232	0xbe3afb05	-0.18259819
233	0xbdfd0c48	-0.12355858
234	0x3e99463a	0.2993639
235	0x3ef0c787	0.47027227
236	0xbeaf5596	-0.34244984
237	0x3eb9077e	0.3613853
238	0xbef73b69	-0.48287514
239	0xbd9a6f65	-0.07540778
240	0xbdc9eb7f	-0.098593704
241	0x3ed133a0	0.408597
242	0x3ee0d2c3	0.43910798
243	0xbec2caf7	-0.38045475
244	0xbef45d3f	-0.4772739
245	0x3d9fb025	0.07797269
246	0xbef27c1f	-0.47360322
247	0x3e83bff7	0.25732395
248	0x3e105210	0.14093804
249	0xbef0cbce	-0.4703049
250	0xbc0a67d6	-0.008447608
251	0xbe67dd00	-0.22642899
252	0x3eb85bf4	0.36007655
253	0x3ce14d59	0.027502703
254	0x3da39ecc	0.079892725
255	0x3dfda220	0.123844385

gconv_lstm.cell_list.1.gconv.bias f4 [32]
0	0x3f222c4c	0.6334884
1	0x3e922c98	0.28549647
2	0x3e70a1f0	0.23499274
3	0x3eee91e9	0.46595696
4	0x3e56c915	0.20975144
5	0x3f156691	0.5835963
6	0x3e6e3c7f	0.23265265
7	0x3ebad010	0.36486864
8	0x3df8dfed	0.121520855
9	0x3e2de397	0.1698135
10	0x3e3bf740	0.18356037
11	0x3e337cf5	0.17528136
12	0x3e1ed754	0.15511829
13	0x3eb929f7	0.3616483
14	0x3e7907b6	0.24319348
15	0x3e10effc	0.14154047
16	0x3f237e09	0.6386419
17	0x3ec74e7e	0.38927072
18	0x3e70451e	0.23463866
19	0x3f0739e4	0.5282271
20	0x3e8bb72b	0.27288184
21	0x3f37aaa2	0.7174474
22	0x3e84801b	0.25878987
23	0x3edac134	0.42725527
24	0x3d8b29a5	0.067950524
25	0xbdc2f44c	-0.09519252
26	0x3d888d9b	0.06667634
27	0x3d55cf42	0.05219961
28	0x3cceb799	0.02523403
29	0x3ca72ec1	0.020408036
30	0x3d0e884c	0.03479795
31	0x3d11c6cf	0.03558999

gconv_lstm.cell_list.1.gconv.lin.weight f4 [32, 16]
0	0xbd758b92	-0.059947558
1	0xbec6d04c	-0.38830793
2	0xbeeb1b4e	-0.4591927
3	0x3e3417b4	0.17587167
4	0xbcafd383	-0.021463161
5	0xbf10b6cc	-0.56528926
6	0x3cdfa1f8	0.027298912
7	0xbdb9dfa1	-0.09075857
8	0xbf3921ab	-0.72317
9	0x3f66a432	0.9009429
10	0xbeae2ffe	-0.3402099
11	0xbf1ffcc5	-0.6249507
12	0xbe243551	-0.16035964
13	0xbfb4eb51	-1.4134313
14	0xbed8285f	-0.422183
15	0xbe330444	-0.17482096
16	0xbcec127d	-0.02881741
17	0xbf375e6c	-0.7162845
18	0x3ec4866d	0.3838381
19	0x3dcd4bf2	0.10024251
20	0xbec8894c	-0.3916725
21	0xbece790b	-0.40326723
22	0x3f0bf6ec	0.5467365
23	0xbe8694e0	-0.26285458
24	0xbee6ac70	-0.45053434
25	0xbe4e625c	-0.20154709
26	0xbe8bca74	-0.27302897
27	0x3e2d5bd3	0.1692956
28	0x3ca9e7e6	0.02074046
29	0x3e4cfe24	0.20018822
30	0xbeb3c7fc	-0.35113513
31	0xbdc604ab	-0.09668859
32	0x3d893339	0.06699223
33	0xbe4aabf2	-0.19792154
34	0xbf19943e	-0.59991825
35	0x3e146c6e	0.14494488
36	0x3d11913c	0.035538897
37	0x3d82f7e5	0.063949384
38	0x3d563cfc	0.052304253
39	0xbe24f042	-0.16107276
40	0xbf1359d6	-0.57558954
41	0x3e26c3ab	0.16285579
42	0xbea87371	-0.32900575
43	0xbf240484	-0.6406939
44	0xbdc59f19	-0.09649486
45	0xbf3f0c88	-0.74628496
46	0xbf08a836	-0.5338167
47	0xbe76c163	-0.24097209
48	0xbd426403	-0.04745866
49	0xbed78f45	-0.42101493
50	0xbf12a574	-0.5728371
51	0x3df69596	0.1204025
52	0xbed5a04a	-0.41723853
53	0xbe18922f	-0.14899515
54	0x3e819775	0.25310865
55	0xbf217313	-0.63066214
56	0xbe3ff393	-0.1874526
57	0x3eb77a88	0.3583567
58	0xbc285467	-0.010274029
59	0xbf01f37c	-0.5076215
60	0xbef5abbd	-0.47982588
61	0x3d4ed2e8	0.050494105
62	0xbe93605f	-0.28784463
63	0xbf16e8bc	-0.58948874
64	0xbe81802d	-0.25293103
65	0xbef07970	-0.4696765
66	0xbe8099cf	-0.25117347
67	0x3eba64b0	0.36404943
68	0xbf087e97	-0.5331816
69	0x3e853071	0.2601352
70	0xbda6b479	-0.08139891
71	0xbdf18e3a	-0.11794706
72	0x3f9afb23	1.2107891
73	0x3df58009	0.119873114
74	0x3d814125	0.063112535
75	0xbd3ca1b8	-0.046052665
76	0x3df3a578	0.11896795
77	0x3efb4ca0	0.49081898
78	0x3da33f50	0.0797106
79	0xbeac2b4c	-0.33626783
80	0xbc84ec33	-0.01622591
81	0xbf1551cf	-0.58327955
82	0x3c84cb2a	0.016210157
83	0xbd0f22aa	-0.034945168
84	0xbe5ff54d	-0.21870919
85	0xbeb8bb70	-0.36080503
86	0x3ec01637	0.3751695
87	0xbe9f45a7	-0.31107828
88	0xbf043780	-0.51647186
89	0xbea56242	-0.32301527
90	0x3cb6823f	0.022278903
91	0xbea3cbf1	-0.31991532
92	0xbec2a1a8	-0.3801396
93	0x3e7d86d1	0.2475846
94	0x3a8f6b20	0.001094196
95	0xbf126424	-0.5718405
96	0xbf0acf40	-0.5422249
97	0xbe7f1fef	-0.24914525
98	0xbf0bd60c	-0.54623485
99	0x3e48cfc3	0.19610505
100	0xbebf5bb3	-0.37374648
101	0xbf0b4067	-0.54395145
102	0x3e7afbf3	0.24510173
103	0xbf1aae00	-0.6042175
104	0xbf82688f	-1.0188159
105	0x3e6b89fb	0.23001854
106	0xbe87fe95	-0.26561418
107	0xbeb018b8	-0.3439386
108	0xbf11b88f	-0.5692224
109	0xbea1232e	-0.31472152
110	0xbeb313cf	-0.3497605
111	0xbed77dff	-0.42088315
112	0x3d04fc7f	0.03246736
113	0xbd65e697	-0.05612811
114	0xbf01cf3c	-0.5070684
115	0x3e0b3fd7	0.13598572
116	0xbe0ab3db	-0.13545172
117	0xbe30316f	-0.17206357
118	0x3e98cd5a	0.2984417
119	0xbf11db29	-0.56975037
120	0xbf3bbcbe	-0.7333487
121	0x3ee77a3f	0.45210454
122	0xbe53595e	-0.2063956
123	0xbe6fb33e	-0.23408219
124	0xbe162317	-0.14661823
125	0xbefa802d	-0.48925915
126	0xbeba2328	-0.36354947
127	0xbdc00d51	-0.0937754
128	0x3ee8233e	0.45339388
129	0x3db3d8f4	0.08781615
130	0xbe67ef65	-0.22649916
131	0xbe5397f0	-0.20663428
132	0xbc6f2f8c	-0.014598738
133	0x3e283906	0.16428003
134	0xbe3699e2	-0.17832139
135	0xbe122c3b	-0.14274685
136	0xbf32c2fc	-0.6982877
137	0x3f4033ad	0.7507885
138	0xbe6ceeff	-0.23138045
139	0xbe5bcd0d	-0.2146494
140	0x3d5fdf23	0.05465616
141	0xbf511bb9	-0.81682926
142	0x3e01b802	0.1266785
143	0xbf1067f0	-0.56408596
144	0x3b6bbfab	0.0035972397
145	0xbd31cbc8	-0.04340723
146	0x3e0e4368	0.13892901
147	0x3dc1d472	0.09464349
148	0xbec8e0fa	-0.39234143
149	0xbdd6283f	-0.10456895
150	0x3e85e15e	0.26148504
151	0x3e984f18	0.29747844
152	0xbe3d7276	-0.18500695
153	0xbd14a037	-0.036285605
154	0xbec016a2	-0.37517267
155	0xbdd20943	-0.10255673
156	0x3efe4bea	0.49667293
157	0xbcfe76d3	-0.03106252
158	0xbdb170a1	-0.086640604
159	0xbf053e8f	-0.5204858
160	0x3d2bddd6	0.041959606
161	0xbf059ea6	-0.52195203
162	0xbebcf449	-0.36905125
163	0x3cd7c4ac	0.026338898
164	0x3dd78f8c	0.10525426
165	0xba864d6e	-0.0010246465
166	0x3e2c38cc	0.16818541
167	0xbc29f844	-0.010374133
168	0xbea685e0	-0.32524014
169	0x3efbd5b7	0.4918649
170	0xbf0f9d6c	-0.5609958
171	0xbf421671	-0.7581549
172	0xbd3a3a6b	-0.045465868
173	0xbf94ec21	-1.1634561
174	0xbd060f3e	-0.03272938
175	0x3cb087fd	0.02154922
176	0x3e8a23bc	0.26980388
177	0xbe62b674	-0.22139913
178	0x3ef403a9	0.47659042
179	0xbd2d0a97	-0.042246427
180	0xbea3749c	-0.31924903
181	0xbdf0f5d1	-0.11765636
182	0x3d2af67a	0.041738965
183	0x3e4c0d41	0.19926931
184	0x3e29d978	0.16586864
185	0x3e443f04	0.19164664
186	0x3e64fc99	0.22361983
187	0x3ba92703	0.0051621213
188	0xbf02954c	-0.5100906
189	0xbed83ccb	-0.4223388
190	0xbe8c3cc5	-0.27390113
191	0xbf2407fe	-0.64074695
192	0xbd6092f7	-0.054827657
193	0xbefbd1dd	-0.4918355
194	0xbe7c741f	-0.24653672
195	0x3ea57fec	0.3232416
196	0xbe360180	-0.1777401
197	0xbd72f8f3	-0.059319448
198	0xbd236627	-0.039892342
199	0xbdad7b99	-0.0847084
200	0x3f7acecc	0.97971797
201	0xbdbccfe2	-0.09219338
202	0x3d199a13	0.037500452
203	0xbdd9f9d3	-0.10643353
204	0xbe9fa588	-0.31180978
205	0x3f53cda1	0.8273564
206	0xbe84bbf9	-0.25924662
207	0x3e8a6b09	0.27034786
208	0xbecb6698	-0.3972671
209	0xbf062221	-0.52395827
210	0x3f0b679c	0.5445497
211	0xbc0a9d74	-0.008460391
212	0xbc0cfb24	-0.0086047985
213	0x3ecca4a8	0.39969373
214	0x3e922de6	0.28550643
215	0xbe50eac9	-0.20402063
216	0xbe6368cd	-0.22207947
217	0xbc504274	-0.012711156
218	0xbe3f7e6a	-0.18700567
219	0xbe83848c	-0.25687063
220	0x3e9fa1ad	0.31178036
221	0xbcfb489f	-0.030674277
222	0x3db7d407	0.08975988
223	0xbcc127a0	-0.023578465
224	0xbe9cc2e0	-0.30617428
225	0xbedebd0c	-0.43503606
226	0xbf059506	-0.52180517
227	0xbda579a7	-0.08079844
228	0xbed1931c	-0.40932548
229	0xbe450802	-0.19241336
230	0xbe240a20	-0.16019487
231	0xbe25664e	-0.16152307
232	0xbfab6fca	-1.339349
233	0x3bad7c89	0.0052943868
234	0xbeeac80b	-0.45855746
235	0xbec75288	-0.38930154
236	0xbf1dee04	-0.6169131
237	0xbf4d0e15	-0.8009961
238	0xbd023fc8	-0.031799108
239	0xbefb3b56	-0.49068707
240	0x3e0d028c	0.13770503
241	0xbdce6ac4	-0.10078958
242	0xbe3781af	-0.17920564
243	0x3e7f9876	0.24960503
244	0x3e1e20a0	0.15442133
245	0x3da0ec64	0.07857588
246	0x3de5f9c4	0.1122928
247	0xbe7f67f7	-0.24942003
248	0xbf53e457	-0.82770294
249	0x3f32accd	0.69794923
250	0xbf0203c2	-0.50786984
251	0xbf7f1be4	-0.9965193
252	0xbe3140fe	-0.17309949
253	0xbf4465eb	-0.76718014
254	0x3d397648	0.045278817
255	0xbd66225a	-0.056185104

gconv_lstm.cell_list.2.gconv.bias f4 [32]
0	0x3dc68a77	0.09694379
1	0x3e27ba87	0.16379748
2	0x3e59f204	0.21283728
3	0x3e476255	0.19471104
4	0x3e2a1a89	0.16611685
5	0x3e2a360d	0.16622181
6	0x3e0a4fb9	0.13506974
7	0x3e46d5b6	0.19417462
8	0x3c3b1195	0.011417766
9	0x3d851572	0.06498231
10	0x3deeab72	0.11653794
11	0x3df5c2a0	0.120000124
12	0x3dae50b4	0.08511487
13	0x3d8cdc04	0.06877902
14	0x3c5826e7	0.013192869
15	0x3dbe89b6	0.0930361
16	0x3e72f110	0.2372477
17	0x3e44aba5	0.19206102
18	0x3e75aa6e	0.23990795
19	0x3e72dd39	0.23717202
20	0x3e89d6b9	0.26921633
21	0x3e73bbd0	0.23802114
22	0x3e52b7f2	0.20577982
23	0x3e81fd0a	0.25388366
24	0x3d566e9d	0.052351583
25	0x3c70c3dd	0.014695135
26	0x3dcb9868	0.099411786
27	0xbe10799e	-0.14108893
28	0x3d216606	0.039403938
29	0x3d73b513	0.059498858
30	0xbcbfb3d8	-0.023401186
31	0x3d3fe9c3	0.046853792

gconv_lstm.cell_list.2.gconv.lin.weight f4 [32, 16]
0	0xbfb5d595	-1.4205805
1	0x3e8e06e8	0.27739644
2	0xbe8159dd	-0.25263873
3	0xbf29a350	-0.6626482
4	0xbf2b4f28	-0.6691766
5	0xbf85cd95	-1.0453364
6	0xbed0c14f	-0.40772483
7	0xbf12e66a	-0.57382834
8	0xbe261c4a	-0.16221729
9	0xbecf8acc	-0.4053558
10	0xbe9dc6f4	-0.30815852
11	0x3dc435ec	0.09580597
12	0x3d22ef66	0.03977909
13	0xbe822106	-0.2541582
14	0xbdf0b43c	-0.11753127
15	0x3e783373	0.24238376
16	0xbf149db8	-0.5805316
17	0x3ec130dc	0.3773259
18	0xbed8a8fa	-0.4231642
19	0xbf26a562	-0.65096104
20	0xbf378c71	-0.7169867
21	0xbf64dee8	-0.8940263
22	0xbe9502cc	-0.29103696
23	0xbf175e28	-0.59128046
24	0x3e343530	0.17598414
25	0xbeafd55c	-0.34342468
26	0xbd2b7eb6	-0.041868888
27	0x3e881ce6	0.26584548
28	0x3e7c907a	0.24664488
29	0xbe504b2c	-0.20341176
30	0x3ecdc612	0.40190178
31	0x3de19a2b	0.11015733
32	0xbf8308b0	-1.0237026
33	0x3ee8574d	0.45379105
34	0xbdede225	-0.11615399
35	0xbf46394b	-0.7743117
36	0xbf2c3fea	-0.67285025
37	0xbf38804f	-0.72070783
38	0xbf273185	-0.65309936
39	0xbe4007ca	-0.18752971
40	0xbe091d96	-0.13390192
41	0xbe3c12ae	-0.183665
42	0xbc78eed8	-0.015193664
43	0x3eb604c1	0.35550502
44	0x3de64265	0.112431325
45	0x3d977bfe	0.073966965
46	0xbe2cd313	-0.16877393
47	0xbe7f62aa	-0.24939981
48	0xbfbf4b81	-1.4944917
49	0x3e0a7ee8	0.13524973
50	0xbf38caf4	-0.7218468
51	0xbf6f321c	-0.93435836
52	0xbee7a35b	-0.45241818
53	0xbf1787c6	-0.5919155
54	0xbf17213a	-0.59035075
55	0xbe746ecf	-0.23870395
56	0xbe518402	-0.20460513
57	0xbef2eeb9	-0.47447756
58	0xbc1fc048	-0.009750433
59	0x3c3781f4	0.011200417
60	0x3e69fb3d	0.22849746
61	0xbe64a330	-0.22327876
62	0x3edecffc	0.43518054
63	0xbe6ebf66	-0.233152
64	0xbf4ea607	-0.8072209
65	0x3e8ea743	0.27861986
66	0xbf2b816e	-0.6699437
67	0xbe7e5d8d	-0.24840374
68	0xbedca10a	-0.43091613
69	0xbf96011c	-1.1719089
70	0xbf30da20	-0.6908283
71	0xbf28a388	-0.6587453
72	0x3d1ddcf6	0.038540803
73	0x3dce8d21	0.10085512
74	0x3d61cca3	0.055126797
75	0xbd2dd1d1	-0.042436425
76	0xbe70df63	-0.23522715
77	0xbe9f19c1	-0.31074336
78	0xbe095f82	-0.1341534
79	0x3e3fc6a4	0.18728119
80	0xbfab3d3f	-1.3378066
81	0x3e39f505	0.18159874
82	0xbf421930	-0.75819683
83	0xbf58ceda	-0.8469063
84	0xbebb72a1	-0.36610892
85	0xbf4a3041	-0.7897988
86	0xbf3705ee	-0.71493423
87	0xbe851458	-0.25992084
88	0xbe89d24d	-0.2691826
89	0x3e60f77d	0.2196941
90	0xbec93cb6	-0.3930413
91	0x3d858c3e	0.0652089
92	0xbe61d077	-0.2205218
93	0xbe122aaf	-0.14274095
94	0x3e645a93	0.22300176
95	0xbeae42d9	-0.34035376
96	0xbf6991fe	-0.9123839
97	0x3f15ad32	0.584674
98	0xbf0f1c37	-0.5590243
99	0xbf4e9161	-0.8069058
100	0xbf3a783c	-0.72839713
101	0xbf109ac4	-0.56486154
102	0xbf2541f4	-0.6455376
103	0xbe2edf9f	-0.17077492
104	0xbe365c3c	-0.17808622
105	0xbe1cb438	-0.15303123
106	0xbe101253	-0.1406949
107	0x3eb90c58	0.3614223
108	0xbde2ee93	-0.11080661
109	0xbe81b3c1	-0.25332454
110	0x3de4736d	0.11154828
111	0xbe5161db	-0.20447485
112	0xbf91be91	-1.1386281
113	0x3f3caa3f	0.73697275
114	0xbef29164	-0.4737655
115	0xbec7ee93	-0.39049205
116	0xbe8f4aa2	-0.27986628
117	0xbf3490d7	-0.7053351
118	0xbed2f69e	-0.4120378
119	0xbee3a53b	-0.44461998
120	0xbe10beac	-0.14135236
121	0xbe262263	-0.16224055
122	0xbdcc5b1f	-0.099783175
123	0xbcab89a1	-0.02093965
124	0x3e4b54e7	0.19856606
125	0xbe9dba00	-0.3080597
126	0xbe5beb08	-0.21476376
127	0x3e20cc64	0.15702969
128	0x3e197a3d	0.14988036
129	0x3f26e5c6	0.65194356
130	0xbea75f3b	-0.32689843
131	0xbf26cff6	-0.65161073
132	0xbf178f15	-0.592027
133	0xbf1acdb6	-0.6047014
134	0xbef3d661	-0.47624496
135	0xbe2e6962	-0.17032388
136	0xbd337535	-0.04381295
137	0xbd7d74e9	-0.061879072
138	0xbec25270	-0.3795352
139	0x3e399933	0.18124847
140	0xbec6a05f	-0.38794228
141	0x3cb08611	0.021548303
142	0xbe16eba2	-0.14738324
143	0xbe3580f1	-0.17724968
144	0x3ce2b5b6	0.027674537
145	0x3f5b8a15	0.8575757
146	0xbe2c1095	-0.168032
147	0xbf36b305	-0.7136691
148	0xbea8b6b0	-0.3295188
149	0xbf501987	-0.8128895
150	0xbdab1b6e	-0.08354841
151	0xbe4b8115	-0.1987346
152	0x3e44c033	0.19213943
153	0xbe933d05	-0.28757492
154	0xbe813906	-0.25238818
155	0x3dbc6a05	0.09199909
156	0xbd3cc0cf	-0.046082314
157	0xbe629165	-0.22125776
158	0x3c9e6d59	0.01933925
159	0x3e531cfe	0.20616528
160	0xbe171ee3	-0.14757876
161	0x3e9a0d82	0.3008843
162	0xbeb83c98	-0.3598373
163	0xbdf818ac	-0.12114081
164	0xbe2cdd3a	-0.16881266
165	0xbf2a6683	-0.6656267
166	0xbe9266e6	-0.2859413
167	0xbda85e10	-0.08221066
168	0x3e67f20d	0.22650929
169	0x3e82fc24	0.25582993
170	0xbe80d6d0	-0.2516389
171	0xbe052ae5	-0.13004644
172	0xbdceac06	-0.100914046
173	0xbe99ae62	-0.30015856
174	0x3d5ff389	0.054675613
175	0xbd1e4714	-0.038642004
176	0xbec4afae	-0.38415283
177	0x3f5b891c	0.8575609
178	0xbeb12a79	-0.34602717
179	0xbf04de1d	-0.5190142
180	0xbeff5e27	-0.4987652
181	0xbf4b4372	-0.7939979
182	0xbf0ceb55	-0.5504659
183	0x3d8f5c2b	0.070000015
184	0xbe9833e3	-0.29727086
185	0xbedfa6cd	-0.43681946
186	0xbe999766	-0.2999832
187	0xbe62135a	-0.22077695
188	0xbeacfef9	-0.3378828
189	0x3e18fd78	0.1494044
190	0x3e9a710d	0.30164376
191	0xbe6aab43	-0.22916894
192	0xbe84f43d	-0.2596759
193	0x3f03639b	0.5132386
194	0xbed82c07	-0.4222109
195	0xbecac303	-0.39601907
196	0xbedc1190	-0.4298215
197	0xbf658f5b	-0.8967187
198	0x3dfa97a4	0.122359544
199	0xbe8bfe21	-0.27342322
200	0x3e36f385	0.17866333
201	0xbea6a00e	-0.32543987
202	0x3c8a097a	0.016850222
203	0x3d24ef22	0.040267117
204	0xbe81845a	-0.2529629
205	0xbe473aea	-0.19456068
206	0x3e0732e2	0.13203004
207	0xbb581758	-0.0032972898
208	0xbe0af03d	-0.13568206
209	0x3f05b18d	0.52224046
210	0xbe47bfe6	-0.19506797
211	0xbf4253d3	-0.75909156
212	0xbeefc6ef	-0.46831462
213	0xbf2048e1	-0.62611204
214	0xbc8074b6	-0.015680652
215	0xbf071333	-0.5276367
216	0x3e1d0200	0.15332794
217	0x3d1833df	0.037158843
218	0xbeaa2f23	-0.33239087
219	0xbe00749b	-0.12544481
220	0xbe8c6252	-0.27418762
221	0x3df7b20c	0.120945066
222	0x3ecb9bb5	0.39767233
223	0xbef0451f	-0.46927735
224	0xbe30d7f0	-0.17269874
225	0x3f13b2c2	0.5769464
226	0xbf0136ce	-0.5047425
227	0xbef82a63	-0.48469839
228	0xbf07be14	-0.5302441
229	0xbe2d4b8f	-0.16923355
230	0xbb8480d1	-0.0040436764
231	0xbd98dac6	-0.07463603
232	0x3d185411	0.037189547
233	0x3e37625f	0.1790862
234	0xbe79ff0f	-0.24413703
235	0x3ce9588d	0.028484607
236	0xbe6ff817	-0.23434483
237	0xbecb6607	-0.39726278
238	0xbc49b557	-0.012311301
239	0x3e1b6ff8	0.15179431
240	0xbd86fedf	-0.065915816
241	0x3e059913	0.13046674
242	0x3e03591a	0.12826958
243	0xbee5e87d	-0.44903937
244	0xbe89b362	-0.2689467
245	0xbf35d79f	-0.71032137
246	0xbf019634	-0.50619817
247	0x3d2d422b	0.04229943
248	0xbe95654a	-0.2917884
249	0xbe2a2de0	-0.16619062
250	0x3d34ee77	0.04417273
251	0x3c5f5bc6	0.01363272
252	0x3d8daab7	0.06917327
253	0xbe7eccb0	-0.2488277
254	0xbdd16753	-0.10224786
255	0xbd71c323	-0.059023988

fc.weight f4 [1, 8]
0	0xbfcb85a8	-1.5900164
1	0xbfd2101f	-1.641117
2	0xbf5e25f2	-0.8677665
3	0x3fb31a68	1.3992434
4	0xbfb834e4	-1.4391141
5	0xbfeb9cac	-1.8407187
6	0x3fbe3c26	1.4862106
7	0xbfa10d88	-1.2582254
