pretrain/encoder-decoder/speed_encoder.pth (torch, 2544 bytes, 3 tensors)

conv1.bias f4 [16]
0.02029146 0.026096903 0.02600646 -0.026005652 0.025004132 0.027091302 0.026050124 -0.027113965
0.02586902 0.026736042 0.026747223 0.026754802 -0.024532434 -0.026007835 0.026844677 -0.025939342
00000000: 473a a63c 2cc9 d53c 800b d53c ce09 d5bc
00000010: 77d5 cc3c 94ee dd3c 1267 d53c 1b1e debc
00000020: 44eb d33c 8b05 db3c fe1c db3c e32c db3c
00000030: 3ef8 c8bc 620e d5bc 5ee9 db3c be7e d4bc

conv1.lin.weight f4 [16, 1]
-0.1771419 -0.08836668 -0.23714548 0.24524723 -0.07435187 0.21969898 -0.36743724 -0.55716324
-0.15399544 0.3330194 0.24326394 0.58217174 0.3330158 0.15098248 0.06291745 0.44889987
00000000: b064 35be 97f9 b4bd 44d6 72be 1722 7b3e
00000010: cb45 98bd c5f8 603e bc20 bcbe 40a2 0ebf
00000020: fbb0 1dbe 8581 aa3e 2f1a 793e 3509 153f
00000030: 0c81 aa3e 279b 1a3e ddda 803d 34d6 e53e

conv2.lin.weight f4 [1, 16]
-0.015554205 -0.5872455 -0.50893414 0.5090617 -0.09358736 -0.29178268 -0.60043144 0.2712632
-0.34665722 -0.5633469 -0.557845 -0.5235318 0.098967366 0.48249784 -0.5464951 0.44809887
00000000: 10d7 7ebc b955 16bf 8249 02bf de51 023f
00000010: bbaa bfbd 8a64 95be e0b5 19bf 03e3 8a3e
00000020: 0e7d b1be 8137 10bf eece 0ebf 2e06 06bf
00000030: 67af ca3d f509 f73e 1ae7 0bbf 376d e53e
